simulator/ceiling_degree.model (npz, 13847 bytes, 6 tensors)

l2/upward/b f4 [80]
000000 90 d6 04 3e 37 25 d4 bb 8b 8e 02 be 73 f2 98 bd
       0.12972474 -0.006474163 -0.12749688 -0.074681185
000010 15 e0 bd bc cc dd bf bd 24 4a 15 bf fe 12 de bd
       -0.02317814 -0.09368476 -0.58316255 -0.10843466
000020 89 a3 08 bc 98 fd 4c bd a6 5b 8c be 2b 8c 5b be
       -0.008339771 -0.050046533 -0.27413672 -0.21440189
000030 9b 53 01 bd f8 6c b5 3e 07 1e ef be 8a 62 4f 3f
       -0.031573873 0.354347 -0.46702597 0.81009734
000040 de 7a c0 3a 48 20 25 3f fb 39 00 be 21 67 bf 3f
       0.0014685055 0.6450238 -0.12522118 1.4953347
000050 08 a3 59 bc 27 ae 70 3f 3f 09 ac be d6 7c 74 3f
       -0.013283499 0.94015735 -0.33600804 0.95502985
000060 36 4b c1 3c 57 65 22 3f 56 b4 ef 3d f2 b1 b5 3c
       0.023595434 0.6343588 0.11704318 0.022179577
000070 6a f6 27 3d 9d 4d 83 3d 6b d8 38 3d 3d 63 f9 bd
       0.041006483 0.06411288 0.045128267 -0.12177131
000080 23 0f b8 bd 56 26 a7 3f 08 2e 0c bf a9 6c 93 3f
       -0.08987262 1.3058574 -0.5475774 1.1517535
000090 93 67 00 bd fb 24 58 3e 63 08 64 be 93 1b a6 3e
       -0.031348776 0.21107857 -0.22268824 0.32442912
0000a0 9a 0a e0 be 1a e7 51 3e 88 24 56 be f2 24 97 3d
       -0.43758088 0.20498314 -0.20912373 0.07380094
0000b0 ad 29 0a bc e9 49 13 3f 4a f2 9f be 29 f5 b8 3e
       -0.008432788 0.5753465 -0.3123954 0.36124542
0000c0 fe 9b 2e 3c 9b 5c 43 3e e8 4e 1b be a9 50 ed 3e
       0.010657309 0.19078295 -0.15166819 0.463506
0000d0 ed c5 68 bb e7 a0 3c 3e 12 9f 3b 3d a8 77 0d 3f
       -0.0035518364 0.18420754 0.045806 0.55260706
0000e0 38 ff cf bb ae a4 76 3e 2d 55 47 be 89 b0 17 3f
       -0.006347563 0.24086258 -0.19466086 0.59253746
0000f0 ce 04 29 bd 61 9d e0 3f e0 aa b9 bc 15 4a 3a be
       -0.041264348 1.7548028 -0.022664487 -0.18192323
000100 46 87 a3 bd 25 11 0f bb d7 d6 ac 3d d5 96 eb 3c
       -0.07984786 -0.0021830287 0.08439415 0.028758446
000110 1d 07 24 bc e8 7c 07 bd 48 5a cd bd 2f 8b 21 be
       -0.010011462 -0.033078104 -0.100269854 -0.1577575
000120 74 6d 48 bc e7 fa f5 3e 1b 96 9c be f7 8e 6a 3f
       -0.012233127 0.48042986 -0.3058327 0.916244
000130 cc 03 88 3c a0 00 d2 bd 83 53 00 be fa 98 2b bd
       0.016603373 -0.102540255 -0.12531857 -0.041893937

l1/b f4 [20]
000000 a4 49 1f 3e 14 8c a8 be 97 54 df bd 5a cb 03 3e
       0.15555435 -0.3291937 -0.10904806 0.12870541
000010 c2 e0 97 be 7b 73 4a bf b0 d1 a4 bd 78 43 ac be
       -0.29663664 -0.7908246 -0.08047807 -0.33645225
000020 e7 6d 96 3d c0 b1 36 be 64 6e 2e 3f dd 8b a7 3e
       0.07345181 -0.17841244 0.6813719 0.32723895
000030 14 62 28 3f 1e 35 9f 3f f8 0c f1 bd 44 46 99 be
       0.65774655 1.2438085 -0.11770052 -0.2993642
000040 ac 83 1b be e5 a8 74 be 9f a6 02 bf 29 1a a5 be
       -0.15186948 -0.23892553 -0.51035494 -0.3224652

l3/W f4 [1, 20]
000000 4a 70 9c bd ec e2 13 3d d9 2c 2f 41 f3 e4 ee 3e
       -0.07638605 0.03610508 10.948449 0.4665905
000010 15 9d f3 3f 73 f7 82 c0 6b 34 32 40 0c 53 0a 3e
       1.9032313 -4.092706 2.7844493 0.13508242
000020 61 1f 83 3f c1 26 78 3f 46 19 52 be 40 33 4a bf
       1.0243951 0.96934134 -0.20517454 -0.7898445
000030 5f 87 92 bd b1 59 a0 c0 c8 30 17 40 61 8b 3a 40
       -0.07154726 -5.0109487 2.3623524 2.914757
000040 24 a2 8d 3e d7 d3 b5 c0 d0 10 7e be 0b 2d 50 3e
       0.27662766 -5.6821094 -0.24811101 0.20329683

l2/lateral/W f4 [80, 20]
000000 c8 4c 86 bd 82 13 95 3e eb 66 28 c0 4d bf d4 3e
       -0.065576136 0.29116446 -2.6312816 0.415522
000010 ff 33 50 3e df fd f4 be 56 d2 01 bf c9 c1 8d 3d
       0.20332335 -0.47849938 -0.5071157 0.06921727
000020 3f 75 d4 3e ca 55 3e 3e d3 a0 9e be ad 4b 15 bf
       0.41495702 0.18587413 -0.30982074 -0.583186
000030 04 1e da 3e 38 2e 3b 3f 0b d3 22 3e 4c ab 09 be
       0.42601025 0.731174 0.15900819 -0.13444251
000040 83 41 31 be f7 73 6b 3f 10 a7 f8 bd 98 ae 9b be
       -0.17310147 0.91973823 -0.1214124 -0.30406642
000050 ec 31 dd 3c 9f d8 81 3c aa df 37 c0 2c 0d cb 3d
       0.027001344 0.015850363 -2.8730264 0.09914622
000060 3a e6 9b bd 2d e1 04 bf 95 93 86 bf 7d d0 35 3e
       -0.076122716 -0.5190609 -1.0513788 0.17755313
000070 37 54 16 3e da f8 30 be 83 35 e8 be 9e 83 a5 3e
       0.14680563 -0.1728243 -0.45353326 0.32326978
000080 ea ef c0 be 7d dc 2b 3f 71 9d cd 3d a9 2a e9 3d
       -0.3768304 0.67133313 0.10039795 0.1138509
000090 73 d5 7a 3d 1f e6 45 3f 5c 2e 71 3e a9 82 8e be
       0.061238717 0.7730426 0.23552841 -0.2783406
0000a0 f3 9d 2e bf c0 1b 80 bd 9a 97 07 c0 33 52 87 3e
       -0.6820976 -0.06255293 -2.118628 0.264299
0000b0 ce 3e 7d be 38 50 8e bf 1d ea f5 be 54 61 fa be
       -0.2473099 -1.1118231 -0.48030177 -0.4890238
0000c0 20 95 88 be 9b 1e 2b bd 4e 1d 65 3d 2f 8b 33 3e
       -0.26676273 -0.041777235 0.05593615 0.17533563
0000d0 64 70 03 bf 36 2d ba 3e 83 1a 94 be aa e4 76 3e
       -0.5134337 0.36362618 -0.28926477 0.24110666
0000e0 49 b6 de be be e4 af 3f 42 59 6d 3e d9 08 95 3e
       -0.43498448 1.3741682 0.2317858 0.29108313
0000f0 a1 8c fe be ae 83 4a 3e 27 d1 27 c0 59 ac e8 3e
       -0.49716666 0.19776794 -2.6221406 0.4544399
000100 8e f6 99 3e be 83 2a bf e5 36 b7 be df ba f9 be
       0.3007092 -0.6660727 -0.3578407 -0.48775384
000110 33 f8 de bd e6 00 01 bf 54 71 ce 3e 53 b7 cd 3e
       -0.10887184 -0.50391996 0.40320837 0.40178928
000120 98 4f 89 3d 91 43 01 3f 2f bf 2d be b0 5e 84 bd
       0.067046344 0.50493723 -0.16967462 -0.06463373
000130 03 44 0a 3e a0 73 68 3f ac e5 e4 3e 4f 7c d9 bd
       0.13502507 0.9080143 0.44706476 -0.10619413
000140 8b f9 d6 3e 92 49 e8 bd 02 19 b7 3f b6 22 fe be
       0.4198726 -0.113421574 1.4304507 -0.49635857
000150 42 f1 02 be 9a cb 4a be 0c 4c 14 3f 8f 99 63 3e
       -0.12787345 -0.1980423 0.5792854 0.22226547
000160 1e 00 0b 3e 8f 08 cb be b9 d2 ff 3c 94 48 8b 3f
       0.13574263 -0.39654967 0.03122841 1.0881524
000170 ab 68 c4 be 66 21 09 bf fd 71 ae 3f 27 6f a6 3c
       -0.38361105 -0.53566587 1.3628536 0.020316673
000180 fd 09 13 3f 90 4a ba 3e 87 c9 a2 be 32 2f 0e 3f
       0.57437116 0.36385012 -0.31794378 0.55540764
000190 e5 5b 79 3e 0c b5 38 bf 7c 99 0e 3f 9d 3c 40 3f
       0.24351461 -0.72151256 0.5570295 0.7509249
0001a0 22 9f 6c 3f 18 9c fd bd 40 5b c5 3f a3 c9 ce 3d
       0.9243032 -0.12383288 1.5418472 0.10097053
0001b0 3f 15 b7 bf 81 28 a4 3e a8 c2 84 3e 6a 7d 47 bf
       -1.4303359 0.32062152 0.2592976 -0.7792574
0001c0 ac 05 8e 3e 84 a8 5f be 9b 6e 6e 3f 76 9d b0 be
       0.27738702 -0.21841627 0.9313752 -0.34495133
0001d0 59 a4 08 bf d5 5a 8a 3d 7c 25 4b bf 5c d8 98 3e
       -0.53375775 0.06755606 -0.7935407 0.2985257
0001e0 54 db 35 bf 9f e3 35 bf fc da af 3f c3 71 24 bf
       -0.71037793 -0.7105045 1.3738704 -0.64236087
0001f0 d8 b6 27 3e c2 df 46 be cd 3d e2 3e 24 e6 10 bf
       0.16378343 -0.19421294 0.44187775 -0.56601167
000200 db 20 22 bd cc 76 3f be 32 51 bf 3e a5 1c 42 bf
       -0.039582115 -0.18697661 0.37366635 -0.7582496
000210 0e 45 ca 3e 58 73 14 3f a0 f8 27 3f 6f eb a9 3e
       0.3950581 0.579885 0.65613747 0.33187434
000220 aa fa 10 3e 6e 40 17 bf d4 ef 48 bf 82 df ff 3e
       0.14158121 -0.59082687 -0.7849095 0.4997521
000230 52 cc a2 bd 13 8f 1c bf f1 ea 91 3e f0 5c 23 3f
       -0.07949127 -0.61155814 0.2849956 0.63813686
000240 96 cc 66 3f 5f 0b 35 be dc 5b df 3f d3 e4 a1 3e
       0.90155923 -0.17680119 1.7449908 0.31619892
000250 15 4a 9f bf 2e 9f 5f 3e 34 46 b7 3e a2 c8 53 bf
       -1.2444483 0.21838066 0.35795748 -0.82728016
000260 f6 75 eb 3d 35 39 93 be ab ff 1a 3f 75 0d 1a 3c
       0.11497109 -0.28754583 0.6054637 0.0094026225
000270 be f5 d4 3d 1b e9 db be 75 41 08 bf 32 24 44 3d
       0.10398434 -0.42951283 -0.5322488 0.04788608
000280 81 69 8e 3e 52 33 8e be 2f 18 c8 be a6 2c a0 3d
       0.27814868 -0.2777353 -0.3908095 0.07821016
000290 4d 2c 62 3e 6b 97 59 bd cf 7e bb be 8d b2 d4 3d
       0.22087212 -0.05312292 -0.36620185 0.10385618
0002a0 2a fe 56 be c8 d3 81 bd 4e ed ce bd 3b c0 7f 3e
       -0.20995393 -0.06339222 -0.10103856 0.24975674
0002b0 20 68 13 3e c2 33 6f 3e 62 14 38 3e a7 3e 1b bf
       0.1439519 0.23359588 0.17976525 -0.60642475
0002c0 17 b5 2d 3e 73 01 3a 3f 6a 02 16 3d 7c 03 4b 3e
       0.16963612 0.7265846 0.036623396 0.19825548
0002d0 3d 63 95 40 d6 21 2a 40 1c 46 fd 3d ae 37 8e bf
       4.668364 2.6583152 0.12366888 -1.1110742
0002e0 d7 69 7d c0 ed 59 bd bf dc 0d 36 40 b8 8f a0 40
       -3.959585 -1.4793068 2.844596 5.017544
0002f0 9d 07 d7 3f e3 cc f4 40 07 fd 95 c0 03 16 69 bf
       1.6799198 7.6500106 -4.687137 -0.9104921
000300 8c e8 8d bf 49 aa ae bf ff 5e a5 bf fe 37 09 40
       -1.1086593 -1.3645717 -1.2919616 2.1440425
000310 2f 8a 89 40 19 3d 64 c0 2f 21 8e bd ac ce b1 c0
       4.298118 -3.566229 -0.06939923 -5.5564785
000320 79 6d ab 3e 6d d7 91 bf 3e bb 9e 3f ef 7d 1b bf
       0.33481959 -1.1393868 1.2400892 -0.60739034
000330 e8 7a 84 3e c5 40 13 40 dd ba 13 40 a9 b0 b6 be
       0.2587502 2.3008282 2.3082802 -0.35681656
000340 f2 15 d2 bf 18 8c d8 c0 73 42 2a 3f 4e 78 b8 bf
       -1.6412947 -6.7671013 0.66507643 -1.4411714
000350 70 6c 32 be f7 9f b9 bf 00 71 ea 3f 0d 11 44 bf
       -0.17424178 -1.4501942 1.8315735 -0.7658852
000360 c1 9a ae be 99 ac 59 40 2f 65 8a 3f 7b 74 71 3e
       -0.34102443 3.4011595 1.0812129 0.2357959
000370 b7 2c ac 40 95 8c bb 40 32 65 8c 3e 62 62 a1 bc
       5.3804584 5.860911 0.27420956 -0.019700233
000380 de 90 44 bf 02 82 1e c0 43 d7 03 40 89 50 5c 40
       -0.7678355 -2.476685 2.0600135 3.4424155
000390 77 c8 92 be ab e4 8a 40 8d 5e a7 c0 57 20 93 c0
       -0.28668568 4.3404136 -5.230292 -4.5976977
0003a0 0f 42 f0 bf 8f 0b 1b 3e 32 fc 52 3e 84 e3 9e bf
       -1.877016 0.15141128 0.20604017 -1.2413182
0003b0 49 0b ae 40 b4 d5 e3 bf 58 db 72 40 31 f9 bc c0
       5.4388776 -1.7799592 3.7946377 -5.905419
0003c0 08 05 d4 3e 3e 3b 02 c0 02 f5 25 3f 8a 2d 56 be
       0.4141009 -2.0348659 0.6482698 -0.2091581
0003d0 47 39 9f be 71 11 4d 3f 3b 1b 94 3f 31 42 92 be
       -0.31098387 0.8010474 1.157081 -0.28566125
0003e0 48 1a 0e 3f 6c e9 fa be 5a 8c e0 3e e1 5e cf bf
       0.5550885 -0.49006212 0.4385708 -1.620083
0003f0 18 32 26 3d 00 f8 3d bf 9c 44 a4 bf 23 8a 30 3f
       0.040575117 -0.7420654 -1.2833438 0.6896078

l2/upward/W f4 [80, 20]
000000 27 5b 5c 3e 27 ae bf 3e 75 fc 85 3d ae 45 92 3e
       0.21519147 0.37437555 0.06542293 0.28568786
000010 94 71 3b be ca 95 70 3e 6a 9a c7 3e 1b 6c cb bc
       -0.18305045 0.2349464 0.38984996 -0.024831822
000020 0b 5e 8e bc 22 5e 6f 3f 6f dc 98 be d5 8c 25 3e
       -0.017378828 0.9350301 -0.29855677 0.16167004
000030 49 94 bb be 85 b4 b7 3e 7e 62 05 3f 23 83 44 3e
       -0.3663657 0.35879913 0.5210341 0.1919065
000040 d5 4e c7 3d 02 10 9c 3e 8c 55 60 3e 38 d7 f9 bd
       0.09731833 0.30480963 0.21907634 -0.12199253
000050 68 5f 5d be d1 57 b7 bd a4 d3 a2 bd 43 b2 59 be
       -0.21618426 -0.089522965 -0.079505235 -0.21259408
000060 b0 33 3a be 30 b7 09 bf d9 6b e4 be c1 7f 4a 3e
       -0.1818378 -0.53795147 -0.4461353 0.19775297
000070 c9 a9 a9 3d af 4a 86 3e e8 be ad 3d ca c1 60 be
       0.08284337 0.26228854 0.08483678 -0.21948925
000080 77 54 65 be 85 50 50 be 1f b7 13 be 28 f1 25 bd
       -0.22395502 -0.20343216 -0.14425324 -0.040513188
000090 c1 9c a0 3e 5a fb 36 be 21 13 d8 39 2e 95 b3 3c
       0.31369594 -0.1786932 0.00041212983 0.02192172
0000a0 7a 16 57 bf 69 04 99 bc 42 ef 30 3e 94 cf a6 be
       -0.8401867 -0.01867886 0.1727877 -0.32580245
0000b0 12 62 16 3e fe a0 46 be ed 4f a5 3e e0 18 b8 be
       0.14685848 -0.19397351 0.3228754 -0.35956478
0000c0 e5 30 95 be ec 00 fd 3d 6f 90 dd be d7 ca 50 be
       -0.29138866 0.123536915 -0.43274257 -0.20389877
0000d0 2c 52 54 be 7b 80 46 be bb f6 f2 bd a9 5b 88 be
       -0.20734471 -0.19384949 -0.11863466 -0.2663243
0000e0 3f 57 ed 3d e1 14 21 bf 13 1a 56 3d 95 7e 1b be
       0.115889065 -0.62922484 0.05227096 -0.15185006
0000f0 9a 94 32 bd e4 a8 e3 3d dc 9b 19 bd bf fa 23 bf
       -0.04359875 0.11116198 -0.037502155 -0.64054483
000100 54 b6 d4 3d d9 fb 9d 3d a0 53 1a 3d ac 9d 0d bf
       0.10386339 0.07714052 0.037677407 -0.55318713
000110 a0 4d 19 bf 3e 76 cb bd bd 7e 64 be c2 e1 08 bf
       -0.5988407 -0.09934662 -0.22313972 -0.5346948
000120 7c 4c 0e bf 22 98 17 3d 69 60 b6 3d a4 a3 31 be
       -0.55585456 0.03701032 0.089051075 -0.1734758
000130 cf d3 18 3e 05 7c b1 be eb a6 ce bd c7 6f 09 3f
       0.14924549 -0.34664932 -0.10090431 0.53686184
000140 16 5a 81 3d 97 95 75 3e 66 15 cf 3d 6e da a0 3d
       0.06316011 0.23982845 0.10111503 0.07854162
000150 22 46 20 3d 9f 16 25 3d bc 16 46 bd 8b f4 a5 be
       0.039129384 0.040304776 -0.048361525 -0.32413134
000160 0f ef cf 3e 7e b1 d2 bd c7 dd f0 be 4f ce 19 3e
       0.40612075 -0.1028776 -0.47044203 0.15020107
000170 61 c3 ba 3e 6a 2c 57 3e ee 60 1b be 97 f7 39 3e
       0.36477187 0.21013036 -0.15173694 0.18160854
000180 28 b6 c2 3c 09 83 e5 bd b0 e3 63 3e 08 79 0c be
       0.0237685 -0.112066336 0.22254825 -0.13718045
000190 ce 49 3a 3e 20 27 a3 be f9 6a 10 be b8 de 16 be
       0.18192217 -0.31865788 -0.14103307 -0.14733398
0001a0 0a d0 8e be bf 4b a1 be 54 ef 56 3e 11 5e 79 be
       -0.27893096 -0.31503102 0.20989734 -0.2435229
0001b0 e9 f8 21 3e f9 fd 96 be 37 3d fd bd ef 1a ee 3d
       0.15817608 -0.2949064 -0.123651914 0.11626231
0001c0 07 18 96 3e 8d d9 6a be a9 ab 13 be c4 c6 f1 3c
       0.29315206 -0.22934552 -0.14420952 0.029513724
0001d0 c5 27 3e be ae e4 95 be be 81 85 3e a4 a1 5a be
       -0.18569858 -0.2927603 0.26075548 -0.21350724
0001e0 a5 c5 03 bf a0 62 75 bf db b8 39 bf a8 a0 da be
       -0.51473457 -0.95853615 -0.7254769 -0.42700696
0001f0 73 67 4b bf a0 84 1b bf 96 8f 28 bf 31 60 07 bf
       -0.79454726 -0.60749245 -0.65844095 -0.5288115
000200 e7 73 9f be c4 fe 1b bf bd df 6c bf 82 b6 2f bf
       -0.31143114 -0.60935616 -0.925289 -0.6863786
000210 a6 f9 dc be 33 df 33 bf 5b cd 00 bf 04 4a 0b bf
       -0.43159217 -0.7026245 -0.5031335 -0.54409814
000220 e5 fa 13 bf 06 07 4b bf 1c 16 a8 be 2e 38 1c bf
       -0.5780471 -0.7930759 -0.32829368 -0.61023223
000230 fc 4f 36 bd 3d d5 1d be 73 15 a7 be 04 85 2c bd
       -0.044509873 -0.15413375 -0.32633552 -0.04211904
000240 ed eb df 3c 65 0c 7a 3d 63 7e 92 be 29 0d 11 be
       0.027334178 0.061046977 -0.2861205 -0.14165176
000250 18 e7 ec bc 19 9a df bd 1d 07 10 3d 11 81 00 be
       -0.028918788 -0.10918064 0.035163034 -0.12549235
000260 77 fe bb bd 15 43 ad 3d b0 ef 7c 3e cc fe bb be
       -0.09179395 0.084600605 0.24700809 -0.36717832
000270 d0 98 ba 3d 78 a0 cb be 72 c2 04 bf c2 ad 24 be
       0.09111178 -0.39770865 -0.518592 -0.16081908
000280 36 31 07 bf 4f d1 2c be 52 c4 39 bd 68 fa 07 bf
       -0.52809465 -0.1687672 -0.04535324 -0.53116465
000290 70 81 6f 3d 15 ed 50 bd f7 91 43 3b dc c9 c0 3e
       0.05847305 -0.05100735 0.002984164 0.37654006
0002a0 df c0 88 be 21 bd 1d 3e 2e b6 81 bf 93 64 f4 be
       -0.2670965 0.15404178 -1.0133722 -0.47732982
0002b0 2a 54 ba bf 7c 35 63 be 8c 82 da 3e 60 c4 c6 3d
       -1.4556935 -0.22188371 0.42677724 0.09705424
0002c0 7d b4 09 3d c9 ba 1c bd 17 70 f6 3e e4 9f 83 3e
       0.033619393 -0.03826407 0.48132393 0.25707924
0002d0 21 78 6b 3e da 21 1c 3d 37 35 09 3f f0 88 fe 3e
       0.22995044 0.03811822 0.53596824 0.4971385
0002e0 1f 61 27 be 8d e6 b7 bb 30 37 b2 bd 1f 32 ce be
       -0.16345643 -0.0056122006 -0.087019324 -0.40272614
0002f0 06 69 43 3e 7c e2 76 be 31 22 f3 3d fc 80 01 3d
       0.19083032 -0.24109834 0.11871756 0.03161715
000300 a5 02 e8 3e 4e f4 bc bd 2e ca e7 bd f7 9d 69 be
       0.45314518 -0.09226285 -0.113178596 -0.22814165
000310 20 74 de 3d 8b cd 63 be 73 68 d0 be 04 ab 00 3e
       0.10861993 -0.22246377 -0.40704688 0.12565237
000320 69 c2 3d be 13 c6 c8 bd 52 f6 84 be 69 08 02 3d
       -0.18531193 -0.09803405 -0.25969177 0.0317463
000330 b2 9f b7 be 95 37 05 bf 47 52 45 bd 45 1c 13 be
       -0.35864025 -0.52037936 -0.04817417 -0.14366253
000340 8f c3 0d bf 8b e9 b0 be 5f 21 ac be 2a dd c8 be
       -0.55376524 -0.3455318 -0.3361921 -0.39231235
000350 61 f5 d4 be 8d 26 27 3d e5 00 8b be ac 44 a1 be
       -0.4159346 0.04080825 -0.2714912 -0.31497705
000360 c9 93 08 be 2b 98 35 bf 3d 47 8e be fd 9e e6 bc
       -0.13337626 -0.70935315 -0.27788725 -0.028151983
000370 32 24 9d 3c 7d 87 96 be de 94 0d bf f0 05 b5 be
       0.019182298 -0.29400244 -0.5530528 -0.35356092
000380 65 c7 ba bd ca d4 08 bf 50 fa ba be 4b 01 d4 bd
       -0.09120063 -0.5344969 -0.36519098 -0.10351809
000390 40 e7 9f be 76 7b 0b 3e 64 1a 94 be 34 97 99 be
       -0.31231117 0.13621315 -0.28926384 -0.2999817
0003a0 97 d4 f9 be bd ef 0d bf 65 93 12 be 0a 12 ee 3d
       -0.48795006 -0.55443937 -0.14314039 0.116245344
0003b0 50 98 5b be eb 13 8b 3c d5 fc 90 be 80 e2 09 bf
       -0.21444821 0.016977271 -0.28317896 -0.53861237
0003c0 5e 0e 60 3d ec 69 fe 3d 9e ba 4d be f0 b8 66 3e
       0.0547012 0.12422547 -0.2009072 0.22531486
0003d0 dd ed 87 3d f6 93 dd bd 0a 21 b6 bd 89 e4 99 bd
       0.06637166 -0.10819237 -0.088930205 -0.07514293
0003e0 93 1e 38 3e 4f af ad be d5 09 03 3f a9 97 fa be
       0.17980413 -0.33922812 0.5118688 -0.48943833
0003f0 9f 15 66 3d 81 3b 17 3f b9 43 5d 3e 31 a0 b3 be
       0.056172963 0.5907517 0.21607865 -0.35083154

l1/W f4 [20, 1]
000000 26 be 8f bf e9 98 46 bf d6 0b 0d bf 36 18 86 bf
       -1.1229904 -0.7757707 -0.55096185 -1.0476139
000010 32 80 0c 3f 63 fb b5 bd f2 de 41 bf da 7f a9 3f
       0.5488311 -0.08885839 -0.7573081 1.3242142
000020 66 89 85 bf 08 e0 64 3f ed 5c ee bf b7 55 b0 bf
       -1.0432556 0.89404345 -1.8622109 -1.3776158
000030 2d 45 f6 bf 28 c3 6c 40 54 47 57 3f 94 6b b7 3f
       -1.9239861 3.6994114 0.84093213 1.4329705
000040 7d 6a 0f 3f 56 b7 2a 3f a5 46 8e 3f b4 b2 eb 3f
       0.56021863 0.66686 1.1115309 1.8413911
