models/15min_3M_epoch.model (npz, 13862 bytes, 6 tensors)

l2/upward/W f4 [80, 20]
0.12344723 -0.042860143 -0.04634259 2.2146297 -0.96826595 -1.4083306 -1.1609329 0.26028404
0.12871464 0.17536038 0.11453614 -0.36177412 -0.020722065 -0.22511813 -0.23979104 0.14672534
0.2367956 -0.290108 -0.06618058 0.14541373 0.6946518 1.1994714 1.2110041 -0.40714183
1.144757 -0.34268296 -0.46570846 0.5072555 0.09857229 0.8321133 -0.22388983 0.9737006
1.0593178 0.14715558 -0.24068978 -0.13617542 0.7831724 0.77688426 -0.08037051 1.0329169
0.023015542 -0.34639987 -0.010788888 0.23216139 -0.14245874 -1.3522652 -0.8458956 -0.18270625
0.13293257 0.29473647 -0.21091221 -0.29005232 -0.15204133 0.4206324 -0.1923027 -0.0070795594
0.055251308 -0.3655118 -0.21305305 -0.4274558 0.90076107 1.0981323 0.83672017 -1.2639741
1.1415396 -0.3109076 -0.73316693 0.85109836 -0.023236133 0.69880146 -0.024706716 1.1979705
1.3869673 -0.08226431 0.008715591 0.3937123 0.45935178 1.1773199 0.05262207 0.67008096
0.15887038 0.13996206 -0.11239724 2.8286338 -1.1262277 1.1756637 0.274269 -0.044946108
-0.25633374 0.28240082 0.07104013 0.27874312 -0.031436075 -0.10645079 -0.3899211 -0.078739874
-0.14244662 -0.25120583 0.26977807 0.034452137 0.84127146 0.9059498 0.8296836 1.7611506
1.0969648 1.7049689 1.3837571 0.9249218 0.40270242 1.2841787 -0.10924813 0.6925542
0.91811913 0.122539505 -0.32182613 0.09811401 0.85745454 1.1728828 0.010908563 0.83609384
-0.5190044 -0.051195897 -0.4188946 4.561562 -0.5996012 2.1363044 0.7737054 -0.060623493
0.026441982 -0.18255173 0.06360342 -0.037461586 -0.29716393 -0.1889663 0.17500788 0.26994157
-0.17588165 0.00041575328 -0.14408575 -0.47035176 0.98475903 0.5578658 0.7336543 2.2531545
1.1923276 1.8619123 1.4851625 0.807156 0.004450591 0.70689696 0.16198179 0.5199664
0.5015083 -0.46998903 -0.01166218 -0.1406419 0.7186389 0.75961715 -0.28340617 0.8879145
-0.046290193 0.20406923 0.41791448 -0.24145101 -1.2435638 -0.83542573 -1.0177703 -0.14484894
0.5366794 0.048018616 -0.19150881 0.12737036 0.056675043 -0.09466401 0.02183216 0.0068888385
0.084472865 -0.23537642 0.157046 -0.14779624 0.8429608 0.77304703 1.3124416 1.4087695
1.0140157 1.1619233 1.1657629 1.2931604 -0.59100616 1.2267358 -0.031501334 1.3808107
1.3764119 0.24446373 0.052260328 0.2658086 0.9230062 1.0461947 0.012103964 0.9177844
-0.08262944 0.056634672 -0.21234879 3.9431612 -0.53867483 2.6564038 1.555038 -0.6485417
-0.12689269 -0.3309332 -0.18637605 -0.16615877 -0.03578037 0.19279657 0.077294625 0.06355291
-0.2889228 0.041283913 0.30630618 -0.46696365 0.93982226 1.1621809 1.470267 1.5612773
0.73007303 1.5087212 1.2833095 1.3507317 0.100764126 1.3343135 0.35529697 0.92963606
0.84561366 -0.054247316 -0.12340529 0.043773856 1.1937054 0.7918938 0.23593095 1.2377988
-0.066632144 0.26368392 -0.42522383 -4.4543347 1.0189902 -0.8431097 -1.1897374 -0.00039412332
0.16991852 0.27199608 0.26346675 0.25024313 -0.28704363 -0.06269625 -0.009326415 0.14416155
00000000: e7d1 fc3d 1e8e 2fbd bad1 3dbd 7ebc 0d40
00000010: 47e0 77bf 2d44 b4bf 7399 94bf f343 853e
00000020: c5cd 033e ac91 333e ec91 ea3d 753a b9be
00000030: 52c1 a9bc 5e85 66be c88b 75be 2b3f 163e
00000040: 8c7a 723e 0989 94be af89 87bd 56e7 143e
00000050: b3d4 313f 4788 993f 2f02 9b3f e574 d0be
00000060: 6687 923f 2474 afbe 5771 eebe 7fdb 013f
00000070: 45e0 c93d 6105 553f 6043 65be 7144 793f
00000080: ba97 873f f4af 163e 6277 76be 9271 0bbe
00000090: fd7d 483f e3e1 463f 4b99 a4bd 9f36 843f
000000a0: 178b bc3c 535b b1be e0c3 30bc b7bb 6d3e
000000b0: b4e0 11be 0717 adbf 9d8c 58bf 5917 3bbe
000000c0: 7a1f 083e b3e7 963e 5ff9 57be bd81 94be
000000d0: b9b0 1bbe 215d d73e 00eb 44be a6fb e7bb
000000e0: 324f 623d 5d24 bbbe 942a 5abe 7ddb dabe
000000f0: 4798 663f 998f 8c3f 4b33 563f e7c9 a1bf
00000100: f81d 923f 482f 9fbe d4b0 3bbf 95e1 593f
00000110: b459 bebc a7e4 323f bd65 cabc 1957 993f
00000120: 2588 b13f 317a a8bd d7cb 0e3c a994 c93e
00000130: 2830 eb3e 6bb2 963f 3d8a 573d 6d8a 2b3f
00000140: ebae 223e 3752 0f3e 8630 e6bd 5608 3540
00000150: 3b28 90bf 267c 963f fd6c 8c3e 6919 38bd
00000160: 2d3e 83be d796 903e 7d7d 913d 6bb7 8e3e
00000170: 1dc3 00bd df02 dabd bda3 c7be 5f42 a1bd
00000180: 87dd 11be 0d9e 80be 5a20 8a3e af1d 0d3d
00000190: 915d 573f 53ec 673f 2566 543f 626d e13f
000001a0: 5869 8c3f 6c3c da3f f41e b13f adc7 6c3f
000001b0: 032f ce3e f85f a43f 7cbd dfbd 3b4b 313f
000001c0: db09 6b3f fef5 fa3d 65c6 a4be 00f0 c83d
000001d0: 2482 5b3f 0621 963f d4b9 323c 3f0a 563f
000001e0: 79dd 04bf cab2 51bd 5a79 d6be 51f8 9140
000001f0: 777f 19bf 36b9 0840 8f11 463f 5750 78bd
00000200: db9c d83c d7ee 3abe 8342 823d 5271 19bd
00000210: df25 98be 6280 41be 4435 333e c835 8a3e
00000220: 521a 34be 76f9 d939 378b 13be f2d1 f0be
00000230: 2b19 7c3f 4bd0 0e3f c5d0 3b3f af33 1040
00000240: 319e 983f 2453 ee3f ce19 be3f c7a1 4e3f
00000250: 43d6 913b 33f7 343f 8ede 253e 851c 053f
00000260: d962 003f 67a2 f0be ba12 3fbc 6e04 10be
00000270: b8f8 373f 4576 423f 9d1a 91be 5d4e 633f
00000280: c99a 3dbd 86f7 503e e3f8 d53e ef3e 77be
00000290: 192d 9fbf 76de 55bf 4c46 82bf 4853 14be
000002a0: d263 093f 2baf 443d e31a 44be 606d 023e
000002b0: 1724 683d 34df c1bd 5cd9 b23c c4bb e13b
000002c0: 1c00 ad3d 8406 71be abd0 203e e657 17be
000002d0: 47cc 573f 69e6 453f 16fe a73f 8f52 b43f
000002e0: 44cb 813f e7b9 943f b837 953f 4886 a53f
000002f0: 2e4c 17bf ae05 9d3f 8b07 01bd 68be b03f
00000300: 442e b03f b354 7a3e ed0e 563d 1118 883e
00000310: 224a 6c3f b5e9 853f b44f 463c ebf3 6a3f
00000320: a039 a9bd c2f9 673d f671 59be c15c 7c40
00000330: 98e6 09bf 8502 2a40 7c0b c73f d406 26bf
00000340: 28f0 01be 1470 a9be 5dd9 3ebe 8625 2abe
00000350: 708e 12bd 776c 453e a54c 9e3d 0728 823d
00000360: b0ed 93be 5219 293d 2ad4 9c3e dc15 efbe
00000370: 3198 703f 58c2 943f b631 bc3f efd7 c73f
00000380: 11e6 3a3f c71d c13f 7c43 a43f c7e4 ac3f
00000390: 6c5d ce3d c9ca aa3f 7ce9 b53e a1fc 6d3f
000003a0: 237a 583f 6f32 5ebd eabb fcbd 374c 333d
000003b0: 57cb 983f 8db9 4a3f e297 713e 3170 9e3f
000003c0: 6f76 88bd 9401 873e f0b6 d9be e989 8ec0
000003d0: 456e 823f 0ad6 57bf 5149 98bf 56a2 ceb9
000003e0: 1fff 2d3e 1243 8b3e 1de5 863e de1f 803e
000003f0: 62f7 92be e466 80bd d2cd 18bc 169f 133e

l2/upward/b f4 [80]
0.1076104 1.0005828 -0.16548638 0.9052533 0.013474747 0.9180945 -0.26800278 0.81904775
0.0014079302 1.037056 -0.23894788 0.99794745 -0.03863781 0.021766357 -0.1518939 0.13489132
0.043411672 0.6331885 -0.15743318 0.6027213 0.04384942 1.2992717 -0.41264766 1.1687002
0.14352943 0.8682076 -0.17396085 0.82920724 -0.09435513 -0.018483194 -0.36478555 -0.048255738
0.052717306 0.21253644 -0.11569297 0.19749472 -0.057491716 -0.009866857 0.022285704 -0.03736888
0.014264784 -0.12483952 0.00028068898 -0.11701838 0.05391462 -0.03195505 -0.0774616 -0.037438612
-0.007982284 0.5492378 -0.07120603 0.6109477 0.011028286 1.2472402 -0.2795153 0.9827507
0.020313848 -0.03189815 -0.04713718 -0.0902538 0.07632609 0.7604828 -0.3868908 0.73598844
-0.06209072 0.77595043 -0.50337464 0.7922743 -0.03441352 0.7624224 -0.122940354 0.69464093
-0.011685675 -0.009361616 0.018857358 -0.011765201 -0.066428095 -0.17193808 -0.028966315 -0.14298345
00000000: d762 dc3d 1913 803f 4375 29be aebe 673f
00000010: 2fc5 5c3c 3e08 6b3f a937 89be 1dad 513f
00000020: 4c8a b83a 40be 843f c1ae 74be 7c79 7f3f
00000030: ae42 1ebd 5c4f b23c 138a 1bbe f320 0a3e
00000040: 70d0 313d a418 223f 2a36 21be f14b 1a3f
00000050: 739b 333d 894e a63f 8e46 d3be f897 953f
00000060: 61f9 123e da42 5e3f cb22 32be ed46 543f
00000070: 433d c1bd 116a 97bc 2cc5 babe cfa7 45bd
00000080: 1aee 573d 27a3 593e 70f0 ecbd 0e3c 4a3e
00000090: 6f7c 6bbd 99a8 21bc 8290 b63c 1c10 19bd
000000a0: d7b6 693c ddab ffbd 7029 9339 55a7 efbd
000000b0: 94d5 5c3d 4ce3 02bd 30a4 9ebd 3b59 19bd
000000c0: 20c8 02bc d99a 0c3f 78d4 91bd 1267 1c3f
000000d0: fcaf 343c 91a5 9f3f a11c 8fbe 8d95 7b3f
000000e0: 3a69 a63c a2a7 02bd ea12 41bd fcd6 b8bd
000000f0: da50 9c3d 00af 423f 8d16 c6be bd69 3c3f
00000100: d752 7ebd b0a4 463f 29dd 00bf 7dd2 4a3f
00000110: 31f5 0cbd 1d2e 433f 27c8 fbbd fdd3 313f
00000120: 4675 3fbc 7761 19bc bf7a 9a3c d4c2 40bc
00000130: 740b 88bd 8910 30be c44a edbc 416a 12be

l1/W f4 [20, 2]
0.8564361 0.35798472 -0.47724077 0.90852106 0.32620004 0.30223507 3.5951364 -0.14262292
-1.7202926 -0.0002856627 3.8425164 -0.1796194 2.959497 -0.18986087 0.46184966 0.5943142
1.1410921 -1.1536323 -0.29941258 1.1132705 -0.7162678 -0.30692786 0.45078436 0.31790504
0.09063456 0.30958176 0.36053622 -0.3981803 0.8452319 -0.5425227 0.5545807 -0.87730944
-0.12720418 0.06371623 -0.060808092 0.28165504 0.24015401 -0.70578045 0.050325368 0.9100255
00000000: 653f 5b3f c649 b73e e758 f4be d694 683f
00000010: b103 a73e 8ebe 9a3e b716 6640 be0b 12be
00000020: 8c32 dcbf 00c5 95b9 caeb 7540 26ee 37be
00000030: 6668 3d40 e36a 42be 8f77 ec3e fa24 183f
00000040: 4e0f 923f 39aa 93bf 9b4c 99be a67f 8e3f
00000050: 545d 37bf a625 9dbe 35cd e63e 73c4 a23e
00000060: 9d9e b93d 8081 9e3e 3498 b83e 4ade cbbe
00000070: 1e61 583f c5e2 0abf 00f9 0d3f 5a97 60bf
00000080: d041 02be a87d 823d e811 79bd 1735 903e
00000090: efea 753e 07ae 34bf f921 4e3d 6ef7 683f

l3/W f4 [1, 20]
2.3066313 1.5351467 2.7710197 -0.57661307 0.73849267 3.1496074 1.3629472 -1.0289241
0.51926684 0.1832505 0.49824932 0.19935131 0.9107301 3.3423712 -0.4842247 -0.9238035
-2.0836282 -0.8865944 -0.55819654 -0.18846709
00000000: d99f 1340 b07f c43f 6358 3140 ea9c 13bf
00000010: db0d 3d3f 2b93 4940 0e75 ae3f c9b3 83bf
00000020: acee 043f 05a6 3b3e 891a ff3e c022 4c3e
00000030: 9c25 693f 69e9 5540 4dec f7be 637e 6cbf
00000040: 2a5a 05c0 daf7 62bf f8e5 0ebf 84fd 40be

l2/lateral/W f4 [80, 20]
-0.08236103 0.050346326 -0.36601985 -0.043344963 -0.024622843 0.32733083 0.2354822 0.05576334
0.08847828 -0.28991425 -0.11304188 -0.018020077 -0.19180919 -0.61800987 0.014230583 -0.26100484
1.1933514 0.020363847 0.21331546 0.09823722 -0.02534962 -0.14271507 0.20154049 -0.03067356
-0.13578606 -0.46789008 -0.0720332 0.23957649 0.13386552 -0.31784618 0.35673183 0.13858208
0.47821727 0.17051575 -0.40218836 0.22411217 0.3251889 0.22495086 -0.16521655 0.38725197
0.546805 1.7170413 0.83449095 -1.606853 0.6966629 2.6387246 1.835625 0.36104882
0.8815013 0.29951623 -0.1477542 -0.14813417 0.55513096 0.6508246 0.21174547 -4.3863754
-0.23328708 -2.9950318 -0.14443052 -0.36713925 0.20917097 0.27919742 0.37289292 0.13964811
0.13380773 -0.11462659 0.11880913 -0.0942694 0.30053988 -0.16731827 0.17927842 0.5606833
-0.28985175 0.20932984 -0.22364287 0.169765 -0.09994741 0.20187041 -0.25964302 0.043595165
0.09314116 0.04907415 -0.18569161 0.33433637 -0.12135302 0.6176059 0.1623508 0.120700814
0.32829562 0.3210758 0.191235 -0.26727164 -0.047705997 0.19786343 0.018304277 -0.17979354
0.0452742 -0.02357789 0.094747014 0.4719737 -0.0936082 -0.10147299 -0.007490648 0.0162861
0.96397537 0.059624653 0.5043897 0.058249634 0.43953365 -0.7656942 0.30948502 0.33540094
0.09134837 0.065013185 -0.02420242 -0.0779423 -0.2790784 0.0031663144 -0.25989723 -0.16363877
2.3213115 3.2739668 1.5103168 -3.3244028 2.5993369 6.065711 3.335791 -0.2063112
3.6754012 0.35668552 -0.22294769 0.13753033 2.2105913 1.158504 0.029802257 -6.5335
-1.0267639 -6.3094587 -0.50263613 -0.23159204 0.3892779 0.8243926 1.2117921 -0.35704792
0.37235287 1.8705479 0.75697047 -0.48149088 0.6622565 -0.09681124 0.04817652 0.08458019
-0.018855648 0.88599545 -0.006306405 -1.0353483 -1.0210308 -1.3226897 0.458739 -0.1335598
-0.31934455 -0.35659513 -0.119371146 0.06259125 -0.19159774 0.34354237 -0.3475658 0.17284593
-0.10094059 -0.0733217 -0.24663742 0.27100343 -0.20340486 -0.2150016 0.24736896 0.032272264
-0.089611985 0.41173244 -0.08818365 -0.02197959 -0.12991832 0.13578305 0.21042036 0.039803457
0.07762017 0.02728778 -0.2622152 0.06342788 0.5078302 -0.40376464 0.16718045 0.20369536
0.07004291 0.36012065 0.13313584 -0.44760758 0.011933597 -0.20667061 0.12230469 0.06669632
1.3495576 1.9115664 0.69353807 -0.7314202 0.25836834 2.5478084 1.5844648 0.29301432
0.8568371 0.1582378 0.058166258 -0.5814865 0.3588412 0.39496905 0.5494023 -3.4811723
-0.030641546 -2.842607 0.6111838 -0.053300638 0.005522791 -0.19541797 0.278414 -0.25382617
0.4476132 -0.4551174 0.25962856 -0.57782584 0.2070914 -0.09214771 0.16726525 -0.05306774
-0.19271947 0.05750669 -0.18253845 -0.2344728 0.20161359 -0.09604814 -0.46021527 0.38481995
0.07140667 -0.051617797 0.2261395 -0.09345418 0.23035136 0.05787048 -0.05464081 -0.40871295
0.013772895 0.15598576 0.1545975 0.10960504 0.22161227 0.3400237 0.39214694 0.61852634
00000000: e6ac a8bd f337 4e3d f466 bbbe 7d8a 31bd
00000010: d8b5 c9bc e897 a73e 3f22 713e 1a68 643d
00000020: 1a34 b53d a46f 94be 8082 e7bd d79e 93bc
00000030: a169 44be e535 1ebf 6427 693c 6da2 85be
00000040: bdbf 983f 15d2 a63c 5e6f 5a3e 9830 c93d
00000050: 02aa cfbc e623 12be a160 4e3e 1e47 fbbc
00000060: 800b 0bbe 4a8f efbe 2486 93bd 8a53 753e
00000070: 0b14 093e bcbc a2be 8ea5 b63e 76e8 0d3e
00000080: e5d8 f43e ae9b 2e3e a2eb cdbe a97d 653e
00000090: 297f a63e 8559 663e 872e 29be e445 c63e
000000a0: 6afb 0b3f 02c8 db3f 33a1 553f 5cad cdbf
000000b0: 8058 323f dde0 2840 c3f5 ea3f 64db b83e
000000c0: 12aa 613f 315a 993e e14c 17be 7cb0 17be
000000d0: 101d 0e3f 719c 263f ced3 583e 305d 8cc0
000000e0: cfe2 6ebe 9aae 3fc0 98e5 13be adf9 bbbe
000000f0: ea30 563e f7f2 8e3e d2eb be3e eaff 0e3e
00000100: e504 093e 58c1 eabd 3352 f33d 5110 c1bd
00000110: 5de0 993e 7b55 2bbe c394 373e f188 0f3f
00000120: 7367 94be 905a 563e a302 65be e0d6 2d3e
00000130: 3ab1 ccbd 1eb7 4e3e eeef 84be d890 323d
00000140: cbc0 be3d fa01 493d f125 3ebe 232e ab3e
00000150: ef87 f8bd 6c1b 1e3f 4a3f 263e fd31 f73d
00000160: 5d16 a83e 0c64 a43e 1cd3 433e d4d7 88be
00000170: 5d67 43bd b69c 4a3e daf2 953c cc1b 38be
00000180: 7171 393d 6b26 c1bc b90a c23d 89a6 f13e
00000190: a8b5 bfbd 12d1 cfbd 1c74 f5bb 6d6a 853c
000001a0: 17c7 763f fb38 743d af1f 013f 2b97 6e3d
000001b0: 8e0a e13e 8904 44bf d274 9e3e acb9 ab3e
000001c0: db14 bb3d a225 853d 2744 c6bc 36a0 9fbd
000001d0: 5de3 8ebe f181 4f3b 4011 85be ec90 27be
000001e0: 5e90 1440 ac88 5140 1052 c13f 04c3 54c0
000001f0: 895b 2640 4e1a c240 9a7d 5540 3e43 53be
00000200: c639 6b40 7c9f b63e 664c 64be c0d4 0c3e
00000210: 547a 0d40 dc49 943f dd23 f43c 6f12 d1c0
00000220: 006d 83bf 16e7 c9c0 c3ac 00bf 7726 6dbe
00000230: 6f4f c73e 650b 533f 011c 9b3f fcce b6be
00000240: 09a5 be3e 1d6e ef3f d1c8 413f f985 f6be
00000250: a489 293f f944 c6bd be54 453d 6138 ad3d
00000260: 2977 9abc 99d0 623f f6a5 cebb 4b86 84bf
00000270: 23b1 82bf e54d a9bf d7df ea3e e6c3 08be
00000280: 2181 a3be a393 b6be dc78 f4bd d72f 803d
00000290: 3332 44be c9e4 af3e 25f4 b1be 86fe 303e
000002a0: f1b9 cebd b029 96bd 858e 7cbe f6c0 8a3e
000002b0: 5d49 50be 6129 5cbe 4a4e 7d3e ec2f 043d
000002c0: 7d86 b7bd 98ce d23e a199 b4bd 8b0e b4bc
000002d0: 4f09 05be b60a 0b3e 6f78 573e f308 233d
000002e0: 53f7 9e3d 9f8a df3c 1241 86be 7ae6 813d
000002f0: 2901 023f 3dba cebe 5a31 2b3e 8495 503e
00000300: a872 8f3d bc61 b83e c354 083e d22c e5be
00000310: 2285 433c 76a1 53be e27a fa3d 1598 883d
00000320: 4ebe ac3f 35ae f43f b68b 313f 5b3e 3bbf
00000330: db48 843e 4b0f 2340 becf ca3f f905 963e
00000340: ad59 5b3f 1709 223e be3f 6e3d 4ddc 14bf
00000350: 09ba b73e 6239 ca3e a1a5 0c3f 87cb 5ec0
00000360: fb03 fbbc 46ed 35c0 8b76 1c3f c551 5abd
00000370: 87f8 b43b a61b 48be 488c 8e3e 81f5 81be
00000380: 8f2d e53e 2605 e9be 09ee 843e 65ec 13bf
00000390: c50f 543e f0b7 bcbd 9547 2b3e 8f5d 59bd
000003a0: 4158 45be 238c 6b3d 5ceb 3abe a319 70be
000003b0: cb73 4e3e e3b4 c4bd 56a1 ebbe 1f07 c53e
000003c0: a93d 923d 2f6d 53bd 1d91 673e e864 bfbd
000003d0: 3ae1 6b3e 9909 6d3d 0bcf 5fbd d342 d1be
000003e0: b5a7 613c bbba 1f3e cf4e 1e3e 9b78 e03d
000003f0: 54ee 623e 9617 ae3e 7cc7 c83e be57 1e3f

l1/b f4 [20]
0.0 0.0 0.0 1.8315336 0.8301667 1.795286 2.015563 0.0
-4.0381684e-32 0.0 1.6337035e-05 0.0 0.0 6.675965e-08 4.322603e-11 -4.1178284e-22
-0.63057905 0.0 1.6308103e-16 0.0
00000000: 0000 0000 0000 0000 0000 0000 b16f ea3f
00000010: ce85 543f efcb e53f fcfe 0040 0000 0000
00000020: 77ac 518b 0000 0000 840b 8937 0000 0000
00000030: 0000 0000 815d 8f33 2f1c 3e2e 4fe8 f89b
00000040: a16d 21bf 0000 0000 0605 3c25 0000 0000
