models/30min_3M_epoch.model (npz, 13750 bytes, 6 tensors)

l1/b f4 [20]
1.310838 -7.47829e-16 3.9231217e-19 0.0 5.9464196e-07 0.013417147 0.0 3.1464942
0.0 -3.5705685e-29 6.0646955e-22 3.095673 0.0 -2.5579255 0.0 0.0
1.3667488e-12 0.0 -1.0561776e-18 0.0
00000000: 8ac9 a73f 0a8c 57a6 8a94 e720 0000 0000
00000010: 7c9f 1f35 98d3 5b3c 0000 0000 2960 4940
00000020: 0000 0000 a10c 3590 4f4b 371c 821f 4640
00000030: 0000 0000 0db5 23c0 0000 0000 0000 0000
00000040: 515a c02b 0000 0000 43dd 9ba1 0000 0000

l1/W f4 [20, 2]
-2.071545 -0.00057021104 0.77046 -0.69322395 0.97836274 -0.75637716 -0.35533297 0.34108868
0.54282385 -0.4054263 0.28746068 0.22892423 0.9588268 0.31420973 2.8949435 -0.15982662
-0.5029525 0.25048628 -0.7049768 -1.0882906 -0.019291505 -0.87632966 2.7456756 -0.15968797
-0.5959715 0.904413 -3.2102122 0.15812539 -1.0107191 0.4842128 0.5749237 0.3353267
0.64363724 -0.59339756 1.2794771 0.2870575 0.25990766 -0.7680791 -0.35875112 0.47611013
00000000: 3194 04c0 377a 15ba de3c 453f 2077 31bf
00000010: fb75 7a3f efa1 41bf 34ee b5be 2da3 ae3e
00000020: 81f6 0a3f 0994 cfbe 0c2e 933e 1d6b 6a3e
00000030: ac75 753f 19e0 a03e c146 3940 97a9 23be
00000040: 7fc1 00bf bd3f 803e 5c79 34bf 1b4d 8bbf
00000050: 3809 9ebc 2457 60bf 26b9 2f40 3e85 23be
00000060: 9791 18bf 9c87 673f 1e74 4dc0 9feb 213e
00000070: 3e5f 81bf bdea f73e 332e 133f f1af ab3e
00000080: 69c5 243f e7e8 17bf e8c5 a33f 33f9 923e
00000090: 9e12 853e d5a0 44bf 3aae b7be b5c4 f33e

l2/lateral/W f4 [80, 20]
0.25215754 0.13957694 -0.18890159 0.2568799 0.15194659 -0.26483035 0.07305893 -0.2682039
-0.12678525 0.7627333 0.15963247 -0.06796884 0.33822143 -0.12301386 -0.10400039 0.1295592
-0.017977532 0.06750781 0.18202855 -0.29156017 0.3096566 0.024559338 0.196143 0.13179195
-0.1361388 0.07960549 0.25047332 -0.082518935 -0.010428426 0.027061416 0.16565052 0.04380931
-0.36765054 -0.3630642 -0.30398485 0.035229042 -0.15730187 -0.2650835 0.21210812 0.15899177
-0.0079036 0.016215298 -0.012556698 0.2162919 -0.042661257 -0.10461986 -0.25935286 -0.19587405
-0.102560125 0.2576908 -0.01951099 -0.16564633 0.2728165 -0.11350599 0.31740865 -0.09784973
0.1557819 -0.21857639 -0.23484853 -0.09907879 0.20002899 -0.2499582 0.17658597 0.1795842
-0.32478344 -0.043997984 -0.08766858 0.12936631 0.0041486686 0.13981563 0.2966387 0.22538565
0.40279716 0.18500277 0.3188415 0.30187517 -0.38036734 0.14593615 0.049027458 -0.021873884
0.0005622729 -0.21255998 0.13360544 -0.35262272 0.5975962 -0.198804 0.44401184 -0.12353866
-0.003303683 0.41059554 0.0013356331 -0.004345824 0.280086 0.30428836 0.15829708 -0.04536295
-0.1722377 0.17225164 -0.11319756 0.04467401 0.120493755 -0.08976342 -0.14896761 0.42854646
0.12220144 -0.07365417 0.29384455 -0.60384727 0.117125876 -0.39108843 0.3657501 0.12186908
0.18373069 0.22590613 -0.049649626 -0.24317434 0.4522116 0.29227123 -0.23816746 -0.13942069
0.23462826 0.14102058 0.035963498 0.003930666 -0.040688638 -0.13161075 0.13066667 0.112974696
-0.046852056 0.121847756 0.3791001 -0.2769793 -0.11544571 0.10893303 0.1421845 0.087282315
0.13377243 -0.4963875 -0.26015303 0.28804654 -0.0011159776 -0.16796073 -0.2466824 -0.410027
0.1100626 0.2934009 0.1197544 -0.01688278 -0.02077914 -0.039878055 0.046185307 -0.24253719
-0.12251874 0.160579 0.28768805 0.14482525 0.10441415 0.27636456 0.023935802 -0.502151
0.235587 0.06159978 0.118476555 0.16719905 0.16578434 -0.006914036 0.020936457 -0.1099873
0.17543213 -0.5158569 0.21607979 0.11878431 0.25507897 -0.070083246 0.2610899 -0.29546794
0.070430264 0.1439818 -0.4457686 0.18467999 0.17221057 0.15039134 0.23062815 -0.12606695
-0.11696071 -0.27894962 0.06880016 -0.42829058 -0.19503753 -0.1461536 0.08611 -0.44902194
-0.21037765 -0.041886695 0.13828447 0.28530106 0.092947245 0.16771458 -0.064671844 -0.16944547
0.07903881 0.06400069 -0.17713259 0.29352474 0.2384952 0.0046945377 0.03329206 0.12137409
0.14256851 0.078331396 -0.12005484 0.4131288 -0.053982705 0.108204335 0.30801603 -0.030715156
0.1519692 0.08820467 0.19409846 -0.13408726 0.28134495 0.21407378 0.66314703 -0.28013754
0.051678386 0.17325836 -0.13843073 0.29185578 -0.08608323 -0.039046515 0.17475161 -0.34828162
-0.23103373 0.36730978 0.2062551 0.24364583 -0.07414603 -0.031851396 0.17530692 0.03179645
0.17484091 0.24504176 -0.30496898 0.17233409 -0.27153468 0.010074424 -0.38832575 0.28493384
0.12197285 0.049077477 0.5865151 -0.114671506 -0.3233842 -0.1814823 -0.15332398 -0.13843316
00000000: cb1a 813e 42ed 0e3e 6b6f 41be c385 833e
00000010: e397 1b3e d897 87be ec9f 953d 0652 89be
00000020: fed3 01be 7d42 433f b276 233e 3f33 8bbd
00000030: 5c2b ad3e b1ee fbbd 28fe d4bd 2bab 043e
00000040: 9e45 93bc 8941 8a3d b165 3a3e 6047 95be
00000050: 4f8b 9e3e aa30 c93c b6d9 483e 78f4 063e
00000060: f867 0bbe 3408 a33d 0a3e 803e b0ff a8bd
00000070: fddb 2abc e7af dd3c 4aa0 293e 6471 333d
00000080: b13c bcbe 8de3 b9be e7a3 9bbe 544c 103d
00000090: be13 21be 06b9 87be df32 593e bdce 223e
000000a0: 1a7e 01bc f2d5 843c 9cba 4dbc a07b 5d3e
000000b0: 92bd 2ebd f042 d6bd e6c9 84be 3593 48be
000000c0: 0b0b d2bd 0cf0 833e 83d5 9fbc 319f 29be
000000d0: 9bae 8b3e d475 e8bd 6383 a23e 7065 c8bd
000000e0: 4a85 1f3e 7dd2 5fbe 227c 70be d2e9 cabd
000000f0: 66d4 4c3e 0bf5 7fbe f4d2 343e ece4 373e
00000100: 044a a6be 3b37 34bd 968b b3bd 9a78 043e
00000110: 8ef1 873b d42b 0f3e 07e1 973e 7fcb 663e
00000120: 6e3b ce3e 5e71 3d3e 313f a33e 628f 9a3e
00000130: 82bf c2be 4970 153e 04d1 483d dc30 b3bc
00000140: 7f65 133a 53a9 59be ddcf 083e f78a b4be
00000150: 11fc 183f 4793 4bbe 8555 e33e d601 fdbd
00000160: 9a82 58bb 9439 d23e 6910 af3a 6a67 8ebb
00000170: 6f67 8f3e afcb 9b3e a118 223e 80ce 39bd
00000180: 145f 30be bc62 303e 1fd4 e7bd 18fc 363d
00000190: 6ec5 f63d e2d5 b7bd f78a 18be 716a db3e
000001a0: c044 fa3d ffd7 96bd cb72 963e bc95 1abf
000001b0: b1df ef3d be3c c8be 9943 bb3e 7f96 f93d
000001c0: e623 3c3e f053 673e 685d 4bbd b202 79be
000001d0: 4788 e73e 93a4 953e 2ce2 73be 4cc4 0ebe
000001e0: 6442 703e b367 103e 764e 133d d1cc 803b
000001f0: 21a9 26bd f8c4 06be 7ccd 053e 475f e73d
00000200: f1e7 3fbd 518b f93d 6919 c23e 3bd0 8dbe
00000210: cd6e ecbd 4818 df3d d098 113e 12c1 b23d
00000220: a4fb 083e 8126 febe c732 85be d67a 933e
00000230: ff45 92ba e6fd 2bbe 509a 7cbe 0fef d1be
00000240: 8068 e13d a538 963e cb41 f53d c14d 8abc
00000250: 0439 aabc 2c57 23bd ce2c 3d3d ab5b 78be
00000260: 1beb fabd d26e 243e d94b 933e 124d 143e
00000270: 16d7 d53d a87f 8d3e 0415 c43c f88c 00bf
00000280: b83d 713e 0d50 7c3d d6a3 f23d 3a36 2b3e
00000290: 5fc3 293e 238f e2bb ef82 ab3c 0641 e1bd
000002a0: 7ba4 333e 330f 04bf 0544 5d3e 3045 f33d
000002b0: b699 823e ce87 8fbd 93ad 853e 9347 97be
000002c0: be3d 903d f76f 133e c83b e4be c01c 3d3e
000002d0: f857 303e 3000 1a3e c929 6c3e b217 01be
000002e0: 1989 efbd 7cd2 8ebe 19e7 8c3d e748 dbbe
000002f0: ebb7 47be 4aa9 15be 715a b03d 34e6 e5be
00000300: 3d6d 57be 6291 2bbd 729a 0d3e fb12 923e
00000310: 205b be3d 5fbd 2b3e ac72 84bd 1d83 2dbe
00000320: 1adf a13d cb12 833d 3f62 35be e048 963e
00000330: 1638 743e a3d4 993b 415d 083d fb92 f83d
00000340: 7bfd 113e 366c a03d 50df f5bd 9e85 d33e
00000350: f81c 5dbd 3c9a dd3d 47b4 9d3e 5a9e fbbc
00000360: d09d 1b3e a6a4 b43d bfc1 463e 2c4e 09be
00000370: 720c 903e 2836 5b3e 01c4 293f 306e 8fbe
00000380: b7ac 533d a46a 313e c9c0 0dbe 1f6e 953e
00000390: 684c b0bd 3def 1fbd 16f2 323e f851 b2be
000003a0: 1b94 6cbe 0710 bc3e 8934 533e 4b7e 793e
000003b0: e0d9 97bd 9c76 02bd a883 333e ff3c 023d
000003c0: 7f09 333e 3aec 7a3e e524 9cbe 5978 303e
000003d0: 9806 8bbe 320f 253c a2d2 c6be d9e2 913e
000003e0: e7cc f93d 7705 493d db25 163f e5d8 eabd
000003f0: 9d92 a5be 7fd6 39be f600 1dbe 6cc1 0dbe

l2/upward/b f4 [80]
-0.1425837 0.7142545 0.0 0.699034 -0.007700812 0.09316985 0.0 0.09075012
0.072868235 0.65161717 0.0 0.6327533 -0.06476751 0.55144477 0.0 0.5622777
0.09726757 0.031839598 0.0 -0.048091497 -0.08612926 0.3976187 0.0 0.3711518
-0.004001814 0.39698333 0.0 0.3969054 0.13029286 0.027223203 0.0 0.060123514
-0.008591204 0.00834963 0.0 0.030917915 -0.022071272 0.36836833 0.0 0.34002316
0.15925679 0.09069913 0.0 0.05057939 -0.06589565 0.61442566 0.0 0.60072887
-0.06201744 0.86114687 0.0 0.7885957 -0.014560715 0.04753793 0.0 0.04729767
-0.09551436 -0.0632332 0.0 -0.03895767 0.020463843 0.23054244 0.0 0.21273406
-0.09265183 0.028775975 0.0 0.0680097 0.20422994 -0.06627493 0.0 -0.05730133
0.015098678 0.016473986 0.0 0.015606337 -0.09630648 -0.031658746 0.0 -0.018459322
00000000: 7601 12be 62d9 363f 0000 0000 e4f3 323f
00000010: 1857 fcbb d6cf be3d 0000 0000 33db b93d
00000020: f13b 953d 62d0 263f 0000 0000 1ffc 213f
00000030: d4a4 84bd 7c2b 0d3f 0000 0000 6ef1 0f3f
00000040: 3834 c73d 3d6a 023d 0000 0000 97fb 44bd
00000050: 8a64 b0bd ae94 cb3e 0000 0000 9c07 be3e
00000060: a621 83bb 6641 cb3e 0000 0000 2f37 cb3e
00000070: 7e6b 053e 3203 df3c 0000 0000 1344 763d
00000080: 1fc2 0cbc e3cc 083c 0000 0000 9147 fd3c
00000090: d0ce b4bc c69a bc3e 0000 0000 8417 ae3e
000000a0: 3614 233e 77c0 b93d 0000 0000 562c 4f3d
000000b0: 4cf4 86bd 004b 1d3f 0000 0000 5ec9 193f
000000c0: 0006 7ebd 1f74 5c3f 0000 0000 68e1 493f
000000d0: 1190 6ebc 22b7 423d 0000 0000 34bb 413d
000000e0: 089d c3bd 6880 81bd 0000 0000 1492 1fbd
000000f0: caa3 a73c 5113 6c3e 0000 0000 f5d6 593e
00000100: 3ec0 bdbd 98bb eb3c 0000 0000 ab48 8b3d
00000110: a721 513e 27bb 87bd 0000 0000 cdb4 6abd
00000120: 7260 773c 74f4 863c 0000 0000 b9b1 7f3c
00000130: 553c c5bd 9aac 01bd 0000 0000 0138 97bc

l3/W f4 [1, 20]
-1.1536837 0.34057748 1.8486364 -1.2862667 0.34324354 0.59070045 -0.7070913 0.16466051
-0.16606003 -0.7242687 0.6606045 -1.4261701 -2.0638866 0.16510373 -0.23509623 0.35932165
-0.3783999 0.0725003 -0.22441103 -0.16864997
00000000: e8ab 93bf 2c60 ae3e 1ea0 ec3f 63a4 a4bf
00000010: 9ebd af3e 2538 173f ef03 35bf c49c 283e
00000020: a40b 2abe ac69 39bf 601d 293f be8c b6bf
00000030: b816 04c0 f410 293e 11bd 70be 02f9 b73e
00000040: a2bd c1be 0a7b 943d 01cc 65be 94b2 2cbe

l2/upward/W f4 [80, 20]
2.2458062 0.18104245 0.05481399 0.07231082 -0.04154662 0.21786326 -0.47928095 -3.043042
0.21229273 0.4262665 -0.35428622 -2.8868866 -0.35703152 -0.17312285 0.294918 -0.12834573
-0.12820649 -0.5207497 0.023472058 0.29497552 1.6352111 0.26302442 -0.0117367655 0.7785881
0.05611879 0.78645355 0.8791414 -0.46382394 0.8010586 0.031964254 0.10168262 -0.4782092
0.71716547 0.8794619 0.6907541 0.72181636 0.03979138 0.36620852 0.068236575 0.45844933
-0.2323763 -0.0984993 0.3638071 0.1284759 -0.21964285 0.05135706 -0.2667593 -0.18869157
0.57981 -0.07100042 0.21448992 0.34884807 0.33301425 -0.10762802 -0.2597292 -0.04523934
0.20022999 -0.25824207 -0.15123208 0.23508091 1.8590628 0.011164911 -0.0818206 1.0209583
0.21490315 0.91388327 1.0190244 -0.29393318 0.78050226 0.08517687 0.075977296 -0.53244513
0.53935856 0.46660125 0.70999354 0.5526995 0.061403137 0.41137865 0.11095629 0.62199944
-1.2803793 -0.15915896 -0.18122406 0.2149356 -0.09512033 -0.052501854 -0.15683088 2.1925516
-0.12706931 -0.41455498 -0.17578822 2.6988592 -0.098687835 -0.03242203 0.3773005 0.25666052
0.17278767 0.22546893 -0.035046823 -0.16948849 -1.0582722 -0.34275603 -0.009349512 0.17864431
-0.3339758 0.3054663 0.04097671 1.2770743 0.08135305 -0.13312127 0.03668769 1.7969487
0.117590904 0.04536012 -0.035141952 -0.29930502 0.09838613 0.276434 0.020859791 0.06610352
0.49787024 -0.0839549 -0.17654344 0.20526148 0.09042436 -0.14995243 0.17890601 0.5429324
-0.2886452 0.33313528 -0.06534331 0.38515857 -0.26693016 -0.119918 0.075406425 -0.05529616
0.4704546 0.30765298 -0.3261599 0.2004582 -0.98838687 0.39049968 -0.11157697 -0.30541936
0.19338779 0.2799398 0.030448658 1.6880484 0.261861 -0.024044221 0.12976357 1.5863029
-0.10021412 0.31920362 0.23967533 0.10639844 -0.10217083 -0.009250115 0.1620414 0.36743203
-1.7952695 -0.07165325 0.30445972 -0.034492753 -0.040211536 -0.16465104 0.2911369 2.8951337
0.027249504 0.118390195 0.538133 3.2067716 0.11266085 0.06379534 0.38289967 -0.045636147
0.23586965 -0.17924476 -0.020901904 0.046832487 1.0858843 -0.20653386 -0.11867995 0.86376023
-0.35528806 0.19858572 0.5687653 1.1060445 0.8495859 -0.42781416 0.17085709 1.0822126
0.79973006 0.6581768 0.58536875 0.55038595 0.13558127 0.44905144 -0.37179095 0.7422893
-0.081856996 -0.0137667935 -0.21680719 0.013875616 -0.5740415 0.16110514 0.0825353 0.14685284
0.082727864 0.2544403 0.016815852 -0.0005596211 -0.46044943 0.12875006 0.06380006 -0.15165973
-0.10935797 -0.035820328 -0.23385596 -0.2532889 1.5124056 -0.104237616 -0.011091659 0.6495037
-0.2143107 0.30380356 0.64000595 0.9762253 0.5452323 0.13274771 0.19060667 1.1681106
0.27846014 0.94677156 0.81606007 0.717849 0.3028319 0.5265006 0.20158409 0.89233696
1.7318513 0.17890427 0.16263796 -0.18303639 -0.057235744 -0.23228309 -0.2801952 -2.8659363
0.08197172 0.016955683 -0.01098606 -2.8755093 -0.1108616 0.4850244 -0.28456923 0.3252721
00000000: 4abb 0f40 3163 393e a284 603d b217 943d
00000010: ca2c 2abd 8c17 5f3e 5064 f5be 33c1 42c0
00000020: 4463 593e 9a3f da3e 0165 b5be c0c2 38c0
00000030: d6cc b6be 1e47 31be 7eff 963e 106d 03be
00000040: 9048 03be da4f 05bf 7948 c03c 0807 973e
00000050: 994e d13f 23ab 863e 904b 40bc 8d51 473f
00000060: d1dc 653d 0555 493f 690f 613f 557a edbe
00000070: 2d12 4d3f f3ec 023d fa3e d03d d6d7 f4be
00000080: 2898 373f 6a24 613f 43d5 303f f5c8 383f
00000090: 49fc 223d af7f bb3e 9ebf 8b3d dfb9 ea3e
000000a0: 0ef4 6dbe 00ba c9bd ed44 ba3e 308f 033e
000000b0: 0eea 60be c85b 523d ad94 88be 5d38 41be
000000c0: 6e6e 143f ab68 91bd 3fa3 5b3e 379c b23e
000000d0: d880 aa3e 146c dcbd 3afb 84be e34c 39bd
000000e0: 1709 4d3e 4e38 84be 95dc 1abe 0db9 703e
000000f0: c5f5 ed3f 08ed 363c 8f91 a7bd c3ae 823f
00000100: 920f 5c3e 41f4 693f 646f 823f 697e 96be
00000110: ffce 473f 3671 ae3d fc99 9b3d 534e 08bf
00000120: 6713 0a3f 5ce6 ee3e 23c2 353f b77d 0d3f
00000130: db81 7b3d 39a0 d23e 0d3d e33d 5b3b 1f3f
00000140: 78e3 a3bf 91fa 22be cd92 39be 1418 5c3e
00000150: 73ce c2bd 2f0c 57bd 4698 20be c452 0c40
00000160: 751e 02be 8d40 d4be d401 34be 1cba 2c40
00000170: d91c cabd f6cc 04bd 882d c13e 0269 833e
00000180: 40ef 303e 54e1 663e 428d 0fbd 648e 2dbe
00000190: 7775 87bf b87d afbe b22e 19bc 89ee 363e
000001a0: e0fe aabe 1466 9c3e 32d7 273d 2c77 a33f
000001b0: 6e9c a63d f150 08be d545 163d 6a02 e63f
000001c0: 80d3 f03d 88cb 393d 02f1 0fbd 823e 99be
000001d0: ab7e c93d c288 8d3e 27e2 aa3c 4861 873d
000001e0: d9e8 fe3e 8cf0 abbd cec7 34be 1130 523e
000001f0: 6830 b93d 218d 19be 2333 373e 9efd 0a3f
00000200: 4ec9 93be b590 aa3e b7d2 85bd 8133 c53e
00000210: 12ab 88be 9297 f5bd af6e 9a3d 3a7e 62bd
00000220: 6ddf f03e b184 9d3e 6efe a6be ea44 4d3e
00000230: ec06 7dbf 93ef c73e 7782 e4bd ed5f 9cbe
00000240: 7307 463e 4554 8f3e 776f f93c f811 d83f
00000250: a512 863e 63f8 c4bc bee0 043e f90b cb3f
00000260: 0f3d cdbd a86e a33e 736d 753e 6de7 d93d
00000270: f13e d1bd cb8d 17bc 2eee 253e 0d20 bc3e
00000280: 64cb e5bf f0be 92bd 25e2 9b3e 4648 0dbd
00000290: dab4 24bd 489a 28be e50f 953e df49 3940
000002a0: 5a3a df3c 8f76 f23d 16c3 093f bf3b 4d40
000002b0: bbba e63d 22a7 823d 6d0b c43e f8ec 3abd
000002c0: d087 713e f08b 37be 783a abbc 6cd3 3f3d
000002d0: 42fe 8a3f 9d7d 53be 790e f3bd 641f 5d3f
000002e0: 51e8 b5be 0e5a 4b3e 9a9a 113f de92 8d3f
000002f0: 767e 593f 750a dbbe 29f5 2e3e f185 8a3f
00000300: 1cbb 4c3f 467e 283f bada 153f 18e6 0c3f
00000310: d1d5 0a3e 12ea e53e 625b bebe ac06 3e3f
00000320: a4a4 a7bd 1e8e 61bc b402 5ebe 8d56 633c
00000330: 62f4 12bf bff8 243e 4408 a93d 9760 163e
00000340: 3a6d a93d 0046 823e 66c1 893c 89b3 12ba
00000350: 07c0 ebbe 0ed7 033e 9ba9 823d b04c 1bbe
00000360: 12f7 dfbd 56b8 12bd f077 6fbe 15af 81be
00000370: 8296 c13f 887a d5bd cab9 35bc e045 263f
00000380: 4474 5bbe 248c 9b3e 6ed7 233f e7e9 793f
00000390: 5894 0b3f 04ef 073e 652e 433e a684 953f
000003a0: 5492 8e3e 9f5f 723f 50e9 503f f4c4 373f
000003b0: c80c 9b3e bec8 063f 0f6c 4e3e 3270 643f
000003c0: 4ead dd3f ae32 373e 918a 263e e46d 3bbe
000003d0: 0770 6abd 9edb 6dbe bf75 8fbe 806b 37c0
000003e0: cae0 a73d a5e6 8a3c e0fe 33bc 5808 38c0
000003f0: 680b e3bd 1e55 f83e 0fb3 91be 118a a63e
