models/5min_3M_epoch.model (npz, 13883 bytes, 6 tensors)

l2/upward/W f4 [80, 20]
0	0xc014311d	-2.3154976
1	0xbb70e6b3	-0.0036758601
2	0x3d38eec2	0.045149572
3	0xbd2bcfbb	-0.041946154
4	0xbddae44a	-0.10688074
5	0x3e326946	0.17422971
6	0x3cfa3315	0.030541936
7	0x3e96f18a	0.29481155
8	0xbdc3a0e4	-0.09552172
9	0x3da48c43	0.08034565
10	0xbd0480c2	-0.032349356
11	0x3ec1362c	0.37736642
12	0xbed955fe	-0.4244842
13	0xbe6ce541	-0.23134328
14	0xbef4678a	-0.47735244
15	0x3b8cfaae	0.0043023443
16	0x3ee33b66	0.44381255
17	0x3d79f76e	0.061026983
18	0x3e03cd84	0.12871367
19	0xbf021ca2	-0.5082494
20	0x3f0db482	0.5535356
21	0xbe25b918	-0.16183889
22	0xbd9b14a4	-0.07572296
23	0xbd670f03	-0.0564108
24	0x3dab0a5c	0.08351585
25	0xbe9cad0e	-0.3060078
26	0xbe9d0e73	-0.30675086
27	0x3e857203	0.26063547
28	0xbec35c92	-0.38156563
29	0xbe36ea64	-0.1786285
30	0xbddad0ed	-0.10684381
31	0xbda3fe59	-0.08007497
32	0x3c80ec70	0.015737742
33	0x3ebd32bc	0.3695277
34	0x3edf818a	0.43653518
35	0x3d2ea1cb	0.042634767
36	0x3e153bab	0.14573543
37	0x3e96f0d9	0.29480627
38	0xbeea05a4	-0.45707428
39	0xbe49d67b	-0.19710724
40	0xc00aaf0b	-2.1669338
41	0xbe8d419f	-0.27589127
42	0x3e4ee816	0.20205721
43	0xbd0e7113	-0.034775805
44	0xbd0a1537	-0.03371164
45	0xbebcfe23	-0.3691264
46	0xbdf4fa78	-0.119618356
47	0xbe98af60	-0.298213
48	0x3e521a2f	0.20517801
49	0xbed26b53	-0.41097507
50	0xbebfb8d1	-0.3744569
51	0x3e1ac1a3	0.15112929
52	0xbf8b768d	-1.0895554
53	0x3ebaa477	0.36453602
54	0x3e910b54	0.28328955
55	0x3e6973a5	0.22798021
56	0xbcf6b456	-0.030115288
57	0xbec45f9f	-0.38354203
58	0xbefc3ec0	-0.49266624
59	0xbe52e6ed	-0.20595904
60	0x3eb16c36	0.3465287
61	0x3d8cad93	0.06869044
62	0xbe15cb47	-0.14628325
63	0x3da4e5e9	0.080516644
64	0xbe1a4482	-0.15065196
65	0xbd22d15f	-0.039750453
66	0x3e1e1bda	0.15440312
67	0x3df29941	0.11845637
68	0xbf1539e2	-0.5829145
69	0x3992ba1c	0.00027985952
70	0xbf138d0a	-0.57637084
71	0xbedefc78	-0.43551993
72	0xbf06c13c	-0.526386
73	0x3e912fec	0.28356874
74	0x3e292308	0.1651727
75	0xbef23a16	-0.4730994
76	0xbe5be30b	-0.21473329
77	0xbf1e13a2	-0.6174871
78	0xbf118272	-0.5683967
79	0xbeb118a7	-0.3458912
80	0x3b2038c5	0.00244479
81	0xbddd3d7c	-0.10802743
82	0xbda94646	-0.08265357
83	0xbe28c903	-0.1648293
84	0x3d8dfddf	0.06933188
85	0xbe86869b	-0.2627457
86	0xbe3186f2	-0.17336634
87	0x3e431752	0.19051865
88	0x3d817d97	0.063227825
89	0xbecaa9f0	-0.39582777
90	0xbe345e4c	-0.17614096
91	0x3d377cc4	0.04479672
92	0xbebbfd61	-0.3671675
93	0xbe3c06c0	-0.1836195
94	0x3c08ebd0	0.008357003
95	0xbd3ca13e	-0.04605221
96	0xbece6daf	-0.40318057
97	0xbe62030c	-0.22071475
98	0x3f8458cd	1.03396
99	0x3d5a6ef2	0.053328462
100	0x4042a824	3.0415125
101	0x3de4f1ce	0.11178933
102	0xbdfc5472	-0.12320794
103	0xbd971277	-0.07376569
104	0x3e113117	0.14178883
105	0x3fdf2b6c	1.7435126
106	0xbe6f8cac	-0.23393506
107	0xbc962931	-0.018330188
108	0x3fc5a2cc	1.5440307
109	0x3f928564	1.1446958
110	0x3fdc5051	1.7212011
111	0x3fcabcde	1.5838888
112	0x3f23b414	0.6394665
113	0x3fa47496	1.2848079
114	0xbd45a13a	-0.04824946
115	0x3d7a50c0	0.061112165
116	0x3fc5f595	1.5465571
117	0x3fc7a8c9	1.5598384
118	0x3f8282a0	1.0196114
119	0x3de90c80	0.11379337
120	0x3fd7fba6	1.6873672
121	0x3dcfc5e6	0.10145168
122	0xbde0e025	-0.10980252
123	0xbe6f83ec	-0.23390168
124	0x3ea647b9	0.32476595
125	0xbe4cd619	-0.20003547
126	0x3cc4a9f2	0.024006817
127	0xbc235311	-0.009968535
128	0xbd8a9b53	-0.06767907
129	0x3f107703	0.564316
130	0x3c8fec24	0.017568655
131	0xbe8fcc8d	-0.28085747
132	0x3f897954	1.0740151
133	0xbe97a5c5	-0.2961866
134	0xbeaafe15	-0.33396974
135	0xbe93e181	-0.28882983
136	0xbe4974d3	-0.19673471
137	0xbe56cd81	-0.20976831
138	0xbea1be34	-0.31590426
139	0xbe6e001b	-0.23242228
140	0x401226ff	2.2836301
141	0x3f09a713	0.5377056
142	0xbe568a85	-0.20951279
143	0xbb9b33d1	-0.0047364016
144	0x3dbe2787	0.09284883
145	0x3fe4438a	1.7833111
146	0xbd8a1842	-0.06742908
147	0x3dd90758	0.10597104
148	0x3fc2e2a0	1.522541
149	0x3fbe1a3d	1.4851757
150	0x3f94854c	1.1603179
151	0x3fb198a2	1.3874705
152	0x3f253af0	0.64543056
153	0x3fd0964b	1.6295866
154	0x3e914536	0.28373116
155	0xbd4f43e6	-0.050601862
156	0x3fe5d634	1.7955995
157	0x3fed4e4a	1.8539517
158	0x3fac4307	1.3457955
159	0xbd8ffaab	-0.07030233
160	0xbfa8c572	-1.3185256
161	0xbdfd237e	-0.12360285
162	0xbc923c35	-0.017850975
163	0x3e230441	0.15919591
164	0xbd8538e1	-0.065049894
165	0x3e6be2e2	0.23035768
166	0x3de56bcc	0.11202201
167	0xbdd41fc8	-0.10357624
168	0xbd96f502	-0.0737095
169	0x3e9e8ad7	0.309653
170	0x3e766272	0.24060991
171	0xbe42ac6c	-0.19011086
172	0x3ff44cb0	1.9085903
173	0x3da61ee9	0.081113644
174	0xbe094240	-0.13404179
175	0xbe6cf0f2	-0.23138788
176	0x3e05fa90	0.13083863
177	0x3d8653ba	0.06558938
178	0xbf89fb05	-1.077973
179	0x3e674dbe	0.2258825
180	0xc04ae212	-3.1700482
181	0xbe1f79de	-0.15573832
182	0x3cf87927	0.030331207
183	0x3eb45971	0.35224488
184	0x3d896ff8	0.067108095
185	0x3f88d4ab	1.0689901
186	0xbe2136ed	-0.15743609
187	0xbdad175f	-0.08451723
188	0x3f4e5c4c	0.80609584
189	0x3f141c94	0.57856107
190	0x3f78165e	0.9690913
191	0x3f867135	1.0503298
192	0xbf8e702a	-1.112798
193	0x3f842b21	1.0325662
194	0xbe899034	-0.2686783
195	0xbe28f3dc	-0.16499275
196	0x3faf64b7	1.3702611
197	0x3f8f01e7	1.1172456
198	0x3ea878c9	0.32904652
199	0x3e9266bc	0.28594005
200	0xbfff1c51	-1.9930516
201	0xbca12eca	-0.019675631
202	0xbe12d0a1	-0.14337398
203	0xbe2c9445	-0.16853435
204	0xbcac86b3	-0.021060323
205	0xbf0b14e6	-0.54328763
206	0x3dcf66ac	0.10127005
207	0x3df378c0	0.118882656
208	0xbeaf71e2	-0.34266573
209	0x3fab4e6c	1.3383307
210	0xbdc6d459	-0.09708471
211	0x3e7293df	0.23689221
212	0xbf19b03d	-0.60034543
213	0xbef9d5a4	-0.48795807
214	0x3e2153e7	0.15754662
215	0xbdaf1aa9	-0.08550007
216	0xbe4d0c8b	-0.20024316
217	0xbc3d7bba	-0.011565143
218	0xbcd55537	-0.02604161
219	0x3c4ee060	0.012626737
220	0xc031aa5a	-2.7760224
221	0xbd9b5300	-0.0758419
222	0x3dcc31ee	0.09970461
223	0xbd309594	-0.0431114
224	0xbe455a21	-0.19272663
225	0x3f63fe4e	0.89059913
226	0x3e5e9090	0.21734834
227	0x3e58a9a4	0.21158463
228	0x3f4cef93	0.8005306
229	0x3b9d5abf	0.0048020775
230	0x3f8185ed	1.0118996
231	0x3f77f243	0.9685404
232	0xbefd1866	-0.49432677
233	0x3f94fe1c	1.1640048
234	0xbe10586e	-0.14096233
235	0x3e8063c8	0.25076127
236	0x3fa14aaa	1.2600911
237	0x3f6cbb81	0.9247361
238	0x3f8199b3	1.012503
239	0x3d856bf6	0.065147325
240	0xbd91c001	-0.071167
241	0xbe51ccf2	-0.20488337
242	0xbe2a84a9	-0.16652168
243	0x3d3d0988	0.046151668
244	0x3e3e31ac	0.18573636
245	0x3ea1bf08	0.31591058
246	0xbd04db56	-0.032435738
247	0xbe110e0c	-0.14165515
248	0x3eafae30	0.34312582
249	0x3e826670	0.2546878
250	0xbd7aabc8	-0.06119898
251	0xbe373f94	-0.17895347
252	0x3f93c1f8	1.154357
253	0xbe58fc79	-0.2119006
254	0x3e8ba315	0.2727286
255	0x3e47a35b	0.19495909

l2/upward/b f4 [80]
0	0x3e0b43c7	0.13600074
1	0xbd390089	-0.045166526
2	0xbe56c260	-0.20972586
3	0xbea88771	-0.32915834
4	0xbe3dfb19	-0.18552817
5	0x3fc2c789	1.5217143
6	0xbddac6f4	-0.106824785
7	0x3fca5a57	1.580882
8	0x3d2f3dce	0.04278355
9	0x3f869906	1.0515449
10	0x3d444fa9	0.047927532
11	0x3f83a903	1.0285953
12	0x3cf70230	0.03015241
13	0x3f2ecda5	0.6828254
14	0x3bf31b28	0.0074190088
15	0x3ed327c7	0.41241285
16	0xbd69dfb1	-0.057098094
17	0x3faba7d5	1.3410593
18	0xbe5c9e1c	-0.21544689
19	0x3fc44bf0	1.5335674
20	0x3c1247b3	0.008928227
21	0x3d17f4d6	0.037098728
22	0xbe555d26	-0.20836315
23	0x3a7392e4	0.0009291603
24	0x3db45a04	0.088062316
25	0x3fbf1b98	1.4930296
26	0xbd625cdd	-0.055264343
27	0x3fc2e34c	1.5225616
28	0x3c868627	0.01642139
29	0x3f949234	1.1607118
30	0xbc98d47e	-0.018656012
31	0x3f2a9dd6	0.6664709
32	0xbbc8d243	-0.006128581
33	0x3dc631cf	0.09677469
34	0x3e08eb7f	0.13371085
35	0x3e362cf2	0.17790583
36	0xbe080a85	-0.13285263
37	0x3fa18f07	1.2621773
38	0x3d3cb2d4	0.04606898
39	0x3f81d780	1.014389
40	0xbe08ce0a	-0.13359848
41	0x3fc9332c	1.5718741
42	0xbe82cb45	-0.25545707
43	0x3fb9d91c	1.4519382
44	0xbd0ee733	-0.034888458
45	0x3e447516	0.1918529
46	0xbea2194c	-0.31659925
47	0xbe37634e	-0.17908975
48	0x3b424708	0.0029644389
49	0x3ddf78ba	0.10911699
50	0xbf677f49	-0.90428597
51	0x3dc91e65	0.098202504
52	0xbe02380c	-0.12716693
53	0x3e19e4ef	0.15028737
54	0xbeaa5c6d	-0.3327364
55	0x3ec8a8ad	0.3919119
56	0xbddeada2	-0.108729616
57	0x3fccc545	1.5997702
58	0xbde17754	-0.11009088
59	0x3fb31f9d	1.3994023
60	0xbdc01cc4	-0.093804866
61	0x3e2f6590	0.17128587
62	0xbc8ea877	-0.017414315
63	0x3c6f3ccc	0.014601897
64	0x3dfd8a98	0.1237995
65	0x3fb332ce	1.3999879
66	0xbe99ff31	-0.30077508
67	0x3fa6aa14	1.3020654
68	0x3e353e90	0.17699647
69	0x3ec962d9	0.39333227
70	0x3e1be6de	0.15224788
71	0x3dad3154	0.08456674
72	0xbdef8d80	-0.11696911
73	0x3fa94c2c	1.3226371
74	0x3be03c04	0.006843092
75	0x3fbfbde5	1.4979826
76	0xbe4400b9	-0.191409
77	0x3cbdc94f	0.02316728
78	0xbebfd10e	-0.37464184
79	0x3e4c72dc	0.1996569

l1/W f4 [20, 2]
0	0x4063e14d	3.5606263
1	0xbdbb71ab	-0.0915254
2	0x3fa64d1e	1.2992284
3	0xbecdd176	-0.4019887
4	0xbf7e4f69	-0.9933992
5	0xbf83ec22	-1.0306437
6	0x3fad30fc	1.3530574
7	0xbf8929bc	-1.0715861
8	0x3e89173a	0.26775533
9	0xbead0804	-0.33795178
10	0xbdf1048e	-0.11768447
11	0x3f63c738	0.8897586
12	0x3eb09b52	0.344935
13	0xbfd2d88a	-1.6472332
14	0xbf2f560c	-0.6849067
15	0xbe9512b3	-0.2911583
16	0xbe420a5e	-0.18949267
17	0x3e987c83	0.29782495
18	0xbf989b7f	-1.1922454
19	0xbcaef02c	-0.021354757
20	0xbdf10ec6	-0.11770396
21	0x3e73d003	0.23809819
22	0xbd80e395	-0.06293408
23	0x3e8484a8	0.2588246
24	0x3d67a100	0.056550026
25	0xbdb2815f	-0.08716082
26	0xbe2475a5	-0.16060503
27	0x3e6edef4	0.23327237
28	0xbf378d01	-0.7169953
29	0xbf8105ba	-1.0079873
30	0x3f32e095	0.69873935
31	0xbed383be	-0.4131145
32	0x3e4cf720	0.20016146
33	0x3e7019df	0.23447369
34	0xbf62e167	-0.88625187
35	0x3f2fac3b	0.6862218
36	0x402cdf4c	2.701129
37	0xba548ce3	-0.0008108152
38	0xbf89d797	-1.0768918
39	0xbefe5d87	-0.4968073

l3/W f4 [1, 20]
0	0xbda80b8f	-0.082053296
1	0x404c8a9b	3.1959598
2	0xc0307776	-2.7572913
3	0xbf5b3002	-0.8562013
4	0x40354e43	2.8329017
5	0xbf70bb19	-0.9403549
6	0xc04e3a1c	-3.2222967
7	0x40054a4c	2.0826597
8	0x3ef36f98	0.47546077
9	0x3f8f4f44	1.1196065
10	0x40110a2a	2.2662454
11	0x3dc186b4	0.09449521
12	0x3ff338bf	1.9001693
13	0x3f019fc0	0.50634384
14	0x4077821a	3.8673158
15	0x3f99614c	1.1982818
16	0xc0897036	-4.2949476
17	0xbeb66df5	-0.35630766
18	0x40666a7e	3.6002498
19	0x3f838987	1.0276345

l2/lateral/W f4 [80, 20]
0	0xbdc9fe1b	-0.0986292
1	0xbee53c85	-0.44772735
2	0xbec15be7	-0.37765428
3	0x3ecd1e03	0.4006196
4	0xbea5831c	-0.3232659
5	0xbf14ed5a	-0.5817467
6	0xbed2ba9b	-0.41157994
7	0x3ea67c49	0.32516697
8	0x3e92969c	0.2863053
9	0xbd07dd05	-0.033169765
10	0xbde0a737	-0.10969394
11	0xbebca6c5	-0.36845985
12	0x3e122e59	0.14275493
13	0xbdd4b1ae	-0.10385452
14	0x3f9bb3b8	1.2164221
15	0x3cd7df90	0.02635172
16	0x3f172137	0.59035057
17	0x3f486a41	0.7828713
18	0xbebecdc6	-0.37266368
19	0x3da6a2c6	0.08136515
20	0xbe1affb7	-0.1513661
21	0xbefe8436	-0.49710244
22	0x3e3b247d	0.18275638
23	0xbf578ddb	-0.8420083
24	0x3e33b6af	0.17550157
25	0xbdaf8b32	-0.08571471
26	0xbd5d20d6	-0.053986393
27	0x3e9c6a9a	0.3055008
28	0xbe8ac008	-0.27099633
29	0x3df04087	0.117310576
30	0xbf2f450f	-0.6846475
31	0xbe25595a	-0.16147366
32	0x3f2805c6	0.6563381
33	0x3e836f90	0.25671053
34	0xbf2a3970	-0.6649389
35	0x3e932c1c	0.2874459
36	0xbd611ff9	-0.054962132
37	0xbf0d5ce0	-0.5521984
38	0xbe5d19cb	-0.2159187
39	0xbeabb49f	-0.3353624
40	0x3e91b5f5	0.28459135
41	0xbf264ccd	-0.6496094
42	0x3dce5bba	0.10076089
43	0xbf2847c4	-0.65734506
44	0x3f08714f	0.53297895
45	0xbe8f217a	-0.27955228
46	0x3e57697d	0.21036334
47	0xbf015b58	-0.50530005
48	0xbeb0349b	-0.34415135
49	0x3f045433	0.5169098
50	0xbf08138f	-0.53154844
51	0xbe326c1a	-0.1742405
52	0x3e7709b5	0.24124797
53	0x3ef75739	0.48308733
54	0xbeb87858	-0.36029315
55	0x3e89e2ad	0.26930752
56	0xbef71eac	-0.48265588
57	0xbf219930	-0.6312437
58	0xbe095828	-0.13412535
59	0xbf411793	-0.75426596
60	0x3f5fb1c4	0.87380624
61	0xbe71846a	-0.23585668
62	0xbdb5420f	-0.0885049
63	0xbf488bf6	-0.78338563
64	0x3e3036ba	0.17208377
65	0x3e5e65ef	0.21718572
66	0x3d4a2bf8	0.049358338
67	0xbe45eb93	-0.19328146
68	0xbf00e0b1	-0.5034285
69	0x3ec4ef37	0.38463756
70	0xbed28a10	-0.41120958
71	0x3e958465	0.29202572
72	0x3f955b1e	1.1668432
73	0xbe937eac	-0.2880758
74	0xbd6e8fd5	-0.058242638
75	0xbec0044e	-0.37503284
76	0xbeaf38af	-0.34222934
77	0xbfa058a2	-1.2527049
78	0x3e04d23a	0.1297082
79	0xbef9a19d	-0.48756114
80	0xbc136634	-0.008996535
81	0xbd2a0dbb	-0.041517
82	0x3d0b5fe5	0.034027
83	0xbec12561	-0.3772383
84	0xbe0378d5	-0.12839063
85	0x3e4b8136	0.19873509
86	0x3e235827	0.15951596
87	0x3db34b3e	0.08754586
88	0xbe0b977f	-0.1363201
89	0x3c5f3b76	0.013625016
90	0x3ef22648	0.4729483
91	0x3e346978	0.17618358
92	0xbe57b65f	-0.21065663
93	0xbea5cc7e	-0.32382578
94	0xbdd64847	-0.104630046
95	0xbddc67aa	-0.1076196
96	0xbe550d18	-0.20805776
97	0x3ebfe572	0.3747974
98	0xbe80f4c6	-0.25186747
99	0x3e892c56	0.26791638
100	0xbe7cd3d3	-0.2469018
101	0xbee8618f	-0.4538693
102	0x3f800434	1.0001283
103	0xbdfdb4e9	-0.123880215
104	0xbf2ef469	-0.6834169
105	0x3f99bbb0	1.2010403
106	0x3d06474c	0.032782838
107	0x3e52ed3a	0.20598307
108	0x3eb4368a	0.3519786
109	0xbe7240cf	-0.23657535
110	0x3d5b8b44	0.05359961
111	0xbf74e0f6	-0.95655763
112	0xbe901ed1	-0.2814851
113	0xbf3d771f	-0.7400989
114	0xbe5ac325	-0.21363504
115	0xbea7cd45	-0.32773796
116	0x3f696f89	0.91185814
117	0x3e9b3d37	0.3032014
118	0x3d250ea7	0.040297177
119	0x3f3a235c	0.72710204
120	0x3ea08f11	0.3135915
121	0xbf818b58	-1.0120649
122	0x3f804204	1.0020146
123	0xbdb30053	-0.08740296
124	0x3ed43738	0.4144838
125	0xbef09f3a	-0.4699648
126	0x3f0fc767	0.5616364
127	0xbf8af225	-1.0855147
128	0xbede8773	-0.43462715
129	0x3c334ec9	0.010944077
130	0x3ed3c8e4	0.41364205
131	0xbfc2ae94	-1.5209527
132	0x3f4a2bd8	0.7897315
133	0xbf273def	-0.6532888
134	0xbdc7e637	-0.09760707
135	0xbfcbba06	-1.5916145
136	0xbede2a8c	-0.43391836
137	0x3ee8c1d5	0.45460382
138	0xbf1deea2	-0.6169225
139	0xbebf39b4	-0.37348711
140	0xbd6deac8	-0.058085233
141	0xbf8b17bf	-1.0866622
142	0x3f85b7b7	1.044669
143	0x3da0a7ab	0.0784448
144	0xbf1ffc87	-0.624947
145	0x3f66dbca	0.9017912
146	0xbea1c38e	-0.3159451
147	0xbd197568	-0.037465483
148	0x3f2b9dc8	0.6703763
149	0xbe004b52	-0.12528732
150	0xbdf225fc	-0.11823651
151	0xbeb9fce3	-0.3632575
152	0xbede84a0	-0.4346056
153	0xbf0c75d5	-0.548673
154	0x3e3ad731	0.18246152
155	0xbe1aa3af	-0.15101503
156	0x3f131de4	0.57467484
157	0x3eef4f54	0.4674021
158	0xbe0894c5	-0.13338001
159	0x3f53f2f0	0.8279257
160	0xbef7d040	-0.4840107
161	0xbd61a9aa	-0.055093445
162	0x3dff3e65	0.12463073
163	0xbe9602bb	-0.29298958
164	0xbea46dbc	-0.3211497
165	0x3ebf2d8d	0.3733944
166	0xbe1a3de8	-0.15062678
167	0x3d63d0c3	0.055619013
168	0xbe8aea2e	-0.2713179
169	0xbe114274	-0.14185506
170	0xbdf20fae	-0.11819397
171	0xbec20b86	-0.37899417
172	0xbd3b409e	-0.04571592
173	0xbe8baaad	-0.27278653
174	0xbf05cca5	-0.5226539
175	0xbdeedb97	-0.11662977
176	0x3e0eccdb	0.13945334
177	0xbc0b70b0	-0.0085107535
178	0xbe682f6d	-0.22674341
179	0x3e682338	0.22669685
180	0xbfa7dc06	-1.3114021
181	0x3ec0e754	0.3767649
182	0x3f284fc5	0.6574672
183	0x405286ac	3.2894697
184	0xbf6e4e95	-0.93088657
185	0xbd9b5b42	-0.075857654
186	0x3eb033e4	0.3441459
187	0x3f0fd8b1	0.5619002
188	0x3aac28c3	0.0013134707
189	0xbf40ca79	-0.7530895
190	0x409b7b0d	4.858771
191	0xbe64b5d1	-0.22334982
192	0xbf15618b	-0.58351964
193	0x3f4af3fb	0.79278535
194	0x3fabd6af	1.3424891
195	0xbfca1bcd	-1.5789734
196	0xbfb07fca	-1.3788998
197	0x3f6f8eb4	0.9357712
198	0x3f1b7f3f	0.6074104
199	0x3f396424	0.7241843
200	0xbe9f95d6	-0.31169003
201	0xbf82f374	-1.0230546
202	0x3fc4147d	1.5318753
203	0x3fa83373	1.3140701
204	0xbf4976be	-0.7869681
205	0x3e85154e	0.25992817
206	0x3f832c4e	1.0247896
207	0xbf1a66ec	-0.60313296
208	0xbeb4ef70	-0.35338926
209	0xbd87ca9a	-0.0663044
210	0x3bc4ed33	0.0060097217
211	0xbee2df3a	-0.44310933
212	0x3f9f57f0	1.2448711
213	0xbf64d981	-0.89394385
214	0x3c4b2dda	0.012401069
215	0xbd9d0907	-0.076677375
216	0x3e9660aa	0.29370624
217	0x3edfdc79	0.43722895
218	0x3e9fb9f7	0.31196567
219	0xbd23674d	-0.039893437
220	0xbfc37ed1	-1.5273076
221	0xbe2ab590	-0.16670823
222	0x3f407117	0.7517256
223	0x4009d640	2.1537018
224	0xbd12f5b3	-0.03587885
225	0x3f3b3286	0.7312397
226	0xbe8e2ddd	-0.27769366
227	0x3eae248e	0.34012264
228	0x3e500843	0.20315652
229	0xbe7368d4	-0.23770458
230	0x4047bcf8	3.1209087
231	0xbe453cea	-0.19261518
232	0xbdce2e40	-0.10067415
233	0xbeb3b4ce	-0.3509888
234	0x3ea0a721	0.3137751
235	0xbeb63928	-0.35590482
236	0xbf238ca0	-0.6388645
237	0x3e9a5d84	0.30149472
238	0x3f6f7142	0.9353219
239	0x3f7be7f9	0.9840084
240	0x3c3e6926	0.011621749
241	0x3f491b6a	0.78557456
242	0xbf18e70c	-0.5972755
243	0xbf7a16ed	-0.9769123
244	0x3f76b5eb	0.96371335
245	0xbe880900	-0.26569366
246	0xbf6802db	-0.9062936
247	0x3eb4b3f5	0.35293546
248	0xbe7fe7f2	-0.24990824
249	0x3d8cf039	0.06881756
250	0x3f2785e1	0.6543866
251	0x3ef94e35	0.4869248
252	0xbda9b74c	-0.08286914
253	0xbb93eb6c	-0.0045141485
254	0x3fc7cd0f	1.5609454
255	0x3dfda8a5	0.12385682

l1/b f4 [20]
0	0x3f191b4d	0.5980728
1	0xb545802f	-7.357475e-07
2	0x922983ee	-5.3489613e-28
3	0x922a6df7	-5.3778084e-28
4	0xb71a8a2e	-9.211288e-06
5	0x00000000	0.0
6	0x00000000	0.0
7	0xb92bfa7b	-0.00016401142
8	0x00000000	0.0
9	0x3dc7af86	0.09750275
10	0xbe927180	-0.2860222
11	0x00000000	0.0
12	0x3fefeae0	1.8743553
13	0x3dd07e08	0.101802886
14	0x143d1339	9.5458525e-27
15	0xb425c926	-1.544e-07
16	0x00000000	0.0
17	0x00000000	0.0
18	0xbfed7d2b	-1.8553823
19	0xae248e6a	-3.7415772e-11
