net/3M_epoch.model (npz, 14263 bytes, 7 tensors)

l3/W f4 [4, 20]
00000000: 3f5c 833e a954 f33d 0b81 d53e 37bf 303e
00000010: 8d2a a43c 3ccc 0ebf 6abf 00bf dbbc 033f
00000020: 9298 f63e 9a5e 613e b808 9c39 1942 dcbc
00000030: 47c1 1ebe 9d8a 3ebe 4626 c8bd 8953 1a3e
00000040: 18c4 d13e 2f84 983e 0cbc 3abe 3a98 183f
00000050: 6b24 013e 65e8 56bb 98f8 1c3f f1d4 1b3e
00000060: c956 25be 21e3 96be a060 b9be b7a0 23bc
00000070: 1bd9 a73e 0fc2 db3e 13c0 ca3d 1c05 c6be
00000080: b8f3 ffbe 67bc 84be 13fe 103e 7147 88bd
00000090: 775c 143f fbec 323e 776d 05bc 20e7 a5be
000000a0: 1e97 4b3e 59ad e8bb c4dc a23e d522 f63d
000000b0: 3369 ccbe 32fc 31bf eeb5 0abf 9406 a93d
000000c0: fd8f d13c b85a c83b 214b 5a3e 1293 61be
000000d0: 46f6 c0bd 59d1 8ebd 8d2d 143f f40c 933e
000000e0: 2970 093f 464e 423e 283a 543e 758c 11be
000000f0: 95db 623e 9551 263e 5966 153f 77b2 863e
00000100: 93a7 21be 1e10 fbbd 4891 f6be b7ba 803d
00000110: 9e13 99bd c713 9b3e 3dad 91bd 6b97 09be
00000120: a561 c2be c9d6 01bf 6ebe 803d 3228 99be
00000130: ac5e 213f 94c2 1b3e ec44 d73e 7294 79bd
0.25656316 0.11881382 0.41700014 0.17260443 0.020039821 -0.55780387 -0.50292075 0.51460046
0.48163277 0.22008744 0.00029761135 -0.026886987 -0.15503417 -0.18607564 -0.09772925 0.15070929
0.4096992 0.29788348 -0.18235797 0.5960728 0.12611549 -0.0032792327 0.61316824 0.1521795
-0.16146387 -0.2947016 -0.36206532 -0.009987048 0.32782826 0.42921492 0.098999165 -0.38675773
-0.4999063 -0.2592499 0.14159422 -0.06654251 0.5795359 0.17473213 -0.008143774 -0.32402897
0.19881865 -0.007100743 0.31809056 0.120183624 -0.3992401 -0.69525445 -0.5418385 0.08253208
0.025581354 0.00611433 0.21317722 -0.22028759 -0.09421973 -0.06973524 0.57882005 0.2872082
0.5368677 0.18975171 0.2072531 -0.14213736 0.22154076 0.16242059 0.58359295 0.26308033
-0.1578658 -0.122589335 -0.48157716 0.06285613 -0.07474445 0.30288526 -0.07113121 -0.13436668
-0.37965122 -0.5071836 0.062863216 -0.2991348 0.6303508 0.15210944 0.4204477 -0.060932584

l2/lateral/W f4 [80, 20]
00000000: 77c3 ea3e fe8a e23c a4dc a63d a562 4a3e
00000010: b39f 593e c5f6 623d bf6c 803e 861e e03c
00000020: f7c8 993e b7e1 d63e 7750 d73e 718e f53d
00000030: 1dbd 0a3f 0952 8cbd 8821 0fbe 20aa 043e
00000040: 69e2 92be b744 e13d 9539 5d3e 3924 843e
00000050: b92e 5dbe 3d6e 18be ef95 313c a98b 4cbe
00000060: 535d e7bd fd0a 2ebd 5d3c cf3e 5b23 31bd
00000070: bf0d a2be 1683 03bf 25c4 ef3d 5d82 cfbe
00000080: 97d4 cc3e f132 b83e e6f3 f2be d305 983e
00000090: 90fe f8bb 4b5e bbbe 5cbe 463b a72c 513e
000000a0: c891 44be ac6f a4be c11f 763e 45f1 d0be
000000b0: 3117 d93d 1d0f 15bf 4900 213f 322b 1cbe
000000c0: 4be3 cf3e bee6 26bd 499c 16be f648 473e
000000d0: 879c a33e 70aa c03d 1510 06bf bdb5 a63e
000000e0: de08 22be f24e 043a fa80 cd3c e79a d3be
000000f0: 84ab 4f3e cb5d bbbe 7b0a ad3c 40d4 ddbe
00000100: e14b 0abb 9b13 883d 5937 c13e 1865 af3d
00000110: 253c d4be 5958 98bd 34d3 36be 8f6e a4be
00000120: 477d 23bd d403 ad3c 114f 7ebe 96e6 fd3e
00000130: 2521 6c3e f042 1dbe f755 9e3e 5885 cabe
00000140: 86cb 833e cf00 17be 1f4d b23d 27d7 8dbe
00000150: 313e c53e bbc8 633e b5c4 3e3e 88d4 b3be
00000160: 4a67 c83d e153 92be 59d7 91be 5f74 983d
00000170: 43b5 cb3e ab56 6cbe 147e 7bbe 936d ccbe
00000180: f749 d23e a7bf 8abe a9d1 ccbe 7a6a 0e3e
00000190: aeed 543e b948 1fbe 9e4d 4d3f cf0f 15be
000001a0: 5bc8 913e cced f73f adbc 3bbf 8dfe b63d
000001b0: 9c17 84bd cc16 a43d 98e9 a33e 64b6 c13d
000001c0: c504 25be faef 0dbc 04cf 643d a639 ed3e
000001d0: c764 31be 20ff 823e 91f2 fc3b d107 0ebf
000001e0: ac64 ddbd b093 c2bd 6c99 1f3f 7877 62be
000001f0: c5a3 083d d99f bf3e 68ad 123e 268c 9cbd
00000200: b53c 0a3d e086 ecbe 6f7e d3be e596 4cbb
00000210: e907 873d 9fb5 10be 2672 95be 408e 1dbf
00000220: e481 e83e 5dc8 a0be 8bfb 45be 0a5a e7bd
00000230: 36b0 84ba c25b ad3e ac05 d23c f0c5 a23d
00000240: a3b8 11be 4877 e23f e3ee d83e 0eba 4dbe
00000250: 5b1d 0b3e a47d e3bd 7b9e ed3e 24e7 8dbd
00000260: 7483 da3e 062f 6abe fc13 2a3e 5399 313f
00000270: 408f b73e 7364 ce3d 4d3f c5bf 5a2f 29be
00000280: 3843 823c 80cc 93be 39dc acbe c23d 43be
00000290: a651 0ebe 3b31 57be d4d7 153f 3d8a bc3e
000002a0: ffa9 9bbe abfb 19be bf18 db3d 83b2 6c3e
000002b0: c593 3e3e 9549 683e 5f53 36be 9415 093f
000002c0: 4dd8 c9bd 7de2 8c3e 1579 f93e bd5b b9be
000002d0: c640 bd3e 8275 843e e135 f8be 75ff 493e
000002e0: 902c 6d3e 808e dabe 07fd 4a3f 1535 c5bd
000002f0: beef 2a3d 8c3c 64be fe63 37be d615 ac3e
00000300: a52f 3fbe 72a5 b0be e6d4 833e 416b 67bf
00000310: 457a 02bd 4797 003f 5ac0 0b3e b950 2d3e
00000320: 6e48 afbd 5fb7 b33e a24d 103e d5e1 dbbd
00000330: 45cb 05be d5b8 b4bf ca8e 41bf 80ee 3ebe
00000340: 24bd 143f a11d 05bf a840 a9be 9462 46be
00000350: ce45 813e 9337 f6bd 74c0 8f3c 954f fcbf
00000360: f39c a03f 499f 763e 66b1 53bf b36a 4b3e
00000370: 68cf b9ba 4b27 74bf 9e14 8f3e d543 ccbc
00000380: db1a 653e 2910 80bf 7962 5fbe 8195 8e3d
00000390: 0203 af3c 1cbc 043e 77e0 88be f925 14ba
000003a0: 75ca b33e 4547 b03e 7368 363d 52f1 0ebf
000003b0: 5b0e 853e 1b55 083e 6dbf 82bf fa6c 2abf
000003c0: baf2 453e 3198 66bd 3308 073e d527 35be
000003d0: 4f09 e13e 2558 eabe 5c23 343f dd1e e8be
000003e0: 9474 7a3e c01c 873e 30e8 083f 0e16 cabc
000003f0: 1fb8 663f 189e b3bc 9f9c 173f 6582 9d3e
0.45852253 0.027654167 0.081475526 0.19764192 0.21252327 0.05541112 0.25082967 0.027358305
0.30036137 0.41969082 0.42053577 0.11990059 0.54194814 -0.068515845 -0.13977635 0.12955523
-0.28688362 0.109994344 0.21603997 0.25808886 -0.21599855 -0.14885803 0.01083897 -0.19975151
-0.11297097 -0.042490948 0.4047574 -0.04324661 -0.31651112 -0.51371896 0.117073335 -0.40529147
0.40005943 0.35976365 -0.47451705 0.29691944 -0.0075987056 -0.36595377 0.0030325865 0.2042719
-0.19196236 -0.3211645 0.2403555 -0.40809074 0.106001265 -0.58226186 0.6289106 -0.15250853
0.40603098 -0.040747397 -0.14708056 0.19461426 0.31955358 0.094075084 -0.5236829 0.3256053
-0.15823695 0.0005047164 0.025085915 -0.4132912 0.20280272 -0.36594996 0.021123162 -0.43325996
-0.0021102356 0.066443644 0.3773754 0.08564204 -0.41452137 -0.07438726 -0.17854005 -0.321156
-0.039914396 0.02111999 -0.24834849 0.49589986 0.23059519 -0.15357566 0.3092496 -0.39554858
0.25741214 -0.14746402 0.08706116 -0.2770321 0.3852401 0.22244541 0.18629725 -0.35123086
0.09785326 -0.2857962 -0.2848461 0.07444071 0.3978673 -0.23079936 -0.24559814 -0.39927348
0.41072056 -0.27099344 -0.40003708 0.13907805 0.20793793 -0.15555085 0.8019656 -0.14556812
0.28473172 1.9369445 -0.7333477 0.089352705 -0.06449816 0.08012161 0.32014155 0.094586164
-0.161151 -0.008663172 0.055861488 0.46333045 -0.173236 0.2558527 0.007719346 -0.55480677
-0.10810217 -0.095008254 0.6234348 -0.22115886 0.033359308 0.37426642 0.14323962 -0.07643919
0.0337493 -0.4619665 -0.413074 -0.003121787 0.065933056 -0.14131783 -0.2918865 -0.6154518
0.454116 -0.31402865 -0.19334237 -0.112964705 -0.0010123316 0.33859068 0.02563747 0.0794791
-0.1423059 1.7692652 0.42369756 -0.20090505 0.13585417 -0.111079484 0.46409974 -0.06928852
0.42678416 -0.228695 0.16609186 0.6937458 0.3585148 0.10077753 -1.5409943 -0.1652197
0.015901193 -0.2886696 -0.33761767 -0.19066527 -0.13898334 -0.21014874 0.5853245 0.36824217
-0.30403134 -0.1503741 0.10698079 0.23114972 0.18611057 0.2268432 -0.17805241 0.5354855
-0.09855709 0.27516547 0.4872519 -0.36202803 0.3696348 0.258709 -0.48478606 0.19726355
0.2316153 -0.42686844 0.7929234 -0.09629265 0.041732542 -0.22288722 -0.17909238 0.3361041
-0.18670519 -0.34501225 0.25748366 -0.9039803 -0.031854887 0.5023083 0.13647595 0.16925324
-0.08558737 0.3510084 0.14092115 -0.107364334 -0.13065822 -1.4118906 -0.75608504 -0.18645668
0.58101106 -0.51998335 -0.3305714 -0.19373542 0.2524857 -0.12022319 0.017547823 -1.9711787
1.2547897 0.240842 -0.82692564 0.19864921 -0.0014176192 -0.95372456 0.27945417 -0.024934689
0.22373526 -1.0004932 -0.21814908 0.06962109 0.021363739 0.12962383 -0.26733753 -0.00056514103
0.351154 0.34429374 0.044533204 -0.55836976 0.25987515 0.13313715 -1.0214669 -0.66572535
0.19330874 -0.056297485 0.13186722 -0.17690976 0.43952414 -0.45770374 0.70366454 -0.45336047
0.24458534 0.26389122 0.5347929 -0.02466872 0.90124696 -0.02192597 0.5922336 0.30763546

l2/upward/W f4 [80, 20]
00000000: b176 cd3e ff2b 063e b474 91be 22ef 55be
00000010: 78dc 9c3d 0d55 d73e e94a b5bc 04a0 1a3f
00000020: 9271 df3e 8882 bfbd f1ae c43e a970 8bba
00000030: 42b6 8cbe 46ae 3b3e e74a fe3e e04b b03e
00000040: 24d4 13be 82d3 92be 463c b63b 4ccc a93e
00000050: e66e a0be 091a 01be 8416 a93e f09e 09bd
00000060: afe8 38bf 6789 c33d 5430 97be 8c7b 73be
00000070: 0ec8 1c3e 109d ef3d 5174 8c3d f548 4e3e
00000080: ef2c 0dbe af10 1dbf dbe5 9abe 9388 55bd
00000090: c49e 233e 9a64 453d 3c68 1bbf 9be9 a03e
000000a0: b30c 6abe df2c 6d3d 4d97 243c 9d2c 9f3e
000000b0: 00ad dcbd 86bf d2bc 7031 c1ba b958 1b3e
000000c0: 8ab3 a43d de3a 4abd 576e cdbd 48cf 52be
000000d0: 82ae 53be b7b5 f0be 6bdb 7dbe 2d59 6ebe
000000e0: 1859 d9be 662b 9d3e 0b81 143e e372 91be
000000f0: 0170 1e3e 1083 02be 0eaa 003e 5326 583c
00000100: 31a1 d73c 7587 a2be 290d 37be 24ae 003e
00000110: 8411 83be 3871 43be 79a2 f73e 73fc c13d
00000120: 8a19 01bf 1bb0 02bf aadb 0e3e d3fa a2bc
00000130: 7dad a83d 07dc d43c a1cb 923e 443c 893e
00000140: db17 8dbe c053 243f dac2 d4be d0bf 1d3e
00000150: ab58 2f3e 0270 a7be 9bdb 573e 0c3d 80be
00000160: 839f 31be b21b 76bd 9a4a 973e 908f 9fbe
00000170: 9368 a83e 7926 f53d 7f18 563e dbd8 cd3d
00000180: 7d20 9e3e c2aa 35be 39ed a63e d903 ed3d
00000190: 7e9d 903e c81e 88be 5331 123e e555 00be
000001a0: 1a98 683e bc4f 03be e397 f33d 4a9c a23d
000001b0: aaa3 74be 3f10 533e 459b 01be 3a59 7bbd
000001c0: 89f2 14bd e88a 413e fab9 8fbe d172 4e3d
000001d0: 6a32 1d3f 07dc fa3d b2ef 423e 568c 193e
000001e0: 12d6 5d3d 5f10 fabb f098 25be 09bf 3a3d
000001f0: 7bb7 bfbd 7ff5 4dbc f513 b83d 6993 4abe
00000200: 63b8 31bf 84e2 02be db6e 20bf 5bfa 0f3c
00000210: e258 4cbd 3f26 e13d ed71 94bd 7581 29be
00000220: ca54 0b3e 3b39 a0be 2646 97be 49cf 78be
00000230: 633e 753e ac65 d73e 6664 bebe 53a5 1c3c
00000240: 83c7 3ebb d894 d93e 08b9 ba3e 0f57 95be
00000250: b7bc 6f3d fefe 29be 44f8 4fbe 38ce db3d
00000260: a127 903b de12 b63e 75c8 9fbd 4021 f33e
00000270: 323d 873d 7df9 37be 668d 60bc f6a2 343d
00000280: 111f 2bbf 0606 cfbe dffc 0f3f 7139 4e3e
00000290: 27d3 4ebe b651 f5be 03e6 5dbe f1a5 933e
000002a0: 171a 233e a51a 6cbe e7b4 12be 0f06 2cbe
000002b0: 34ed 7f3e b463 893e 3866 a9be abe7 823d
000002c0: ed3b 55be 2906 b2be 93aa ea3e f7c2 233e
000002d0: 4c33 22c0 2065 a5be db33 433f 4bc5 723e
000002e0: 3c00 04c0 faab bfbf c24b 51bf 8651 9e3e
000002f0: ebbe a33e 79d7 2fbf 5eaa 923e 1da8 99bf
00000300: 2ab2 463e cc68 86bf bd43 8f3e 1292 023f
00000310: 2280 e1bf d89e 0abf 7be1 88bf d156 ec3e
00000320: bd19 85be fb04 d3be 3104 e33d 67cb 193e
00000330: c7dd 5bbf 8d2a 39bf c21a cabe 589f b9be
00000340: 43e3 943e 7a7d c23d 9761 423d 5ca3 46be
00000350: 2519 a6be 81c2 00bf f7f2 32bd 7cd5 763e
00000360: 3141 efbe 8702 613c 84d4 eabe 70db 7c3e
00000370: 60a4 4dbf 43dc fabd fcfb 373d 0b70 523f
00000380: e388 74bf dc96 ebbe d4a1 d2be c87f 4e3f
00000390: b3d4 e33e d19a 5f3b 64dd 2e3f 9e67 f6be
000003a0: 9b0a 183e 1ceb 11bf a8f8 4e3f 29f9 a53e
000003b0: 5d41 21bf 0c14 573b 7bcc 11b9 768a 133f
000003c0: bd61 1bbd 8970 863e 0fc9 7a3e 8485 efbd
000003d0: 92c1 c3ba f85b e03e 4f4f 0fbc 52c1 28bc
000003e0: 105e 49be a64f 7abd 05a4 0b3f 948f aebc
000003f0: cbc0 a43e a304 b43e 5553 9d3e a2ab e43d
0.40129617 0.1310272 -0.2840935 -0.20892003 0.076592386 0.42057076 -0.022130447 0.60400414
0.43641335 -0.09351069 0.3841472 -0.0010638434 -0.27482802 0.18328199 0.4966652 0.34432888
-0.14436394 -0.28676993 0.0055613844 0.3316368 -0.3133461 -0.12607588 0.3302499 -0.03359884
-0.72230047 0.09547692 -0.2952906 -0.23777598 0.1531069 0.11699879 0.06858123 0.20145018
-0.13786672 -0.6135358 -0.3025349 -0.0521322 0.15978533 0.048191644 -0.60705924 0.31428227
-0.22856407 0.05790412 0.010045839 0.31088725 -0.10775185 -0.025726091 -0.0014739465 0.15170564
0.08042057 -0.049372546 -0.10030811 -0.20586884 -0.20672038 -0.47013637 -0.24790733 -0.23276205
-0.42450786 0.30697173 0.14502351 -0.28407964 0.15472414 -0.12745309 0.1256487 0.013192731
0.02632198 -0.3174397 -0.17876114 0.1256643 -0.255993 -0.19086158 0.48366144 0.09471979
-0.50429595 -0.51049966 0.13950983 -0.019894993 0.08236215 0.025983823 0.28670982 0.26803792
-0.27557263 0.6419029 -0.4155491 0.15405202 0.17123668 -0.32702643 0.21079867 -0.25046575
-0.17346005 -0.060085006 0.29549104 -0.31164217 0.32892284 0.11970229 0.20907782 0.100511275
0.30884162 -0.1774092 0.32602862 0.115729995 0.28245157 -0.26585984 0.14276628 -0.12532766
0.22714272 -0.12823385 0.118942045 0.07939966 -0.23890558 0.20611666 -0.12656887 -0.06136439
-0.036364112 0.18900645 -0.28071576 0.050402466 0.6140505 0.12248998 0.19036749 0.1499494
0.05415923 -0.007631346 -0.16171622 0.04559234 -0.09361168 -0.012570738 0.089881815 -0.19782795
-0.69421977 -0.12781721 -0.6266915 0.008787717 -0.049889453 0.10993623 -0.07248292 -0.1655329
0.13606563 -0.31293663 -0.29545707 -0.24297823 0.2394958 0.42069757 -0.37185973 0.009560901
-0.0029110617 0.4249637 0.36469293 -0.29167983 0.058529582 -0.16601178 -0.2030955 0.107326925
0.0043992554 0.3556127 -0.07801906 0.47486305 0.06603469 -0.17966266 -0.013705587 0.044100724
-0.6684428 -0.40434283 0.56245226 0.201391 -0.20197736 -0.47913903 -0.21669774 0.2883754
0.15927921 -0.23057039 -0.14326821 -0.16799186 0.2499283 0.2683388 -0.330858 0.063918434
-0.20823641 -0.34770325 0.45833263 0.15992342 -2.534381 -0.32303715 0.76251 0.23708074
-2.0625143 -1.4974358 -0.8175622 0.30921572 0.31981596 -0.6868816 0.28645605 -1.2004429
0.19403902 -1.0500731 0.27981368 0.51004136 -1.7617228 -0.54148626 -1.0693811 0.46159986
-0.259962 -0.41214737 0.11084784 0.15018998 -0.8588528 -0.7233055 -0.3947354 -0.36254382
0.29079637 0.09496589 0.04745635 -0.19398254 -0.3244106 -0.5029679 -0.04368874 0.24104875
-0.46729425 0.013733513 -0.45865262 0.24693084 -0.8032894 -0.12249043 0.044918045 0.82202214
-0.9552137 -0.46013534 -0.4113909 0.8066373 0.44498214 0.0034119377 0.68306565 -0.4812593
0.14847796 -0.56999373 0.8084817 0.32416657 -0.6299036 0.0032818345 -0.00013904452 0.5763315
-0.037935007 0.26257733 0.2449076 -0.11695388 -0.0014935008 0.43820167 -0.008746936 -0.010299997
-0.19664788 -0.061111115 0.5454715 -0.021308698 0.3217834 0.35159788 0.3072764 0.11165549

l1/b f4 [20]
00000000: fb7f e43e a301 e8bd f5bf 82bb 5721 9cbe
00000010: 52e0 823e 52ef e43d 4ce4 973d 8269 0ebe
00000020: f922 91be f27d c2be 0d7a 87bd 8c71 013e
00000030: 6924 18bd 9bb7 0ebd dbe0 adbe 7f62 82bc
00000040: f4f4 093d 2bd5 cfbd a31b 01bf 7ef8 a3bd
0.4462889 -0.11328437 -0.003990168 -0.30494186 0.25561768 0.11178459 0.07416591 -0.13907436
-0.28346995 -0.37986714 -0.06615076 0.12640971 -0.0371441 -0.03484307 -0.33960614 -0.015916107
0.03368087 -0.101480804 -0.50432795 -0.080063805

l2/upward/b f4 [80]
00000000: 70e9 d73d 3cee 683b b003 2cbd cc77 013d
00000010: 6669 883d a944 e9ba e5f5 83be 771a 88bc
00000020: f901 e03c ebf9 0abe 3618 a5bd 8cbe 6c3e
00000030: 558f e23d bb97 95bd e688 26be ffab 2dbd
00000040: c346 8abd b1fc 74bc 0c8d b2bd 1a61 9a3c
00000050: cefe 383d 27bb 9d3d d70a 20be e1ef 0dbe
00000060: 4fc2 ce3c e413 6a3e a112 e5bd a0ac 243e
00000070: 5e5e 173e 1050 bc3d 74b2 4abc 2ea8 a03d
00000080: 63bc 94bd 0c62 95bd 6ee0 48bd 4f84 143e
00000090: 4a54 e33d 860d ff3c fdf2 95bd 460d 3a3d
000000a0: 9f42 8a3d c56e 4ebd e206 66be bfcb 68bd
000000b0: 07b1 cfbd d254 7f3d 37da 2abd 2b69 8dbc
000000c0: 9e3a 2cbc ccb3 e53d b960 b9bc bc32 9d3d
000000d0: 0655 1abe 95b8 a73d f446 ac3b 19b7 463d
000000e0: b926 da3d 267a 0e3d 362f 7cbd 8bc2 37bc
000000f0: 601d 183d 66fc fbbd dd7c b0be dac1 38be
00000100: 5c18 1c3c 730d 393e 8185 f7bd bed4 a73e
00000110: 0364 413e c641 153e 89f9 7f3d 6f5b a73d
00000120: 99df 233d 2697 91bd d1cc 63bd 67ec a3bd
00000130: ba9c f73a 998b b5bc 7cd6 fcbd bc34 84bd
0.105425715 0.003554239 -0.041995704 0.031608388 0.06660728 -0.0017796952 -0.2577354 -0.016614182
0.02734469 -0.13571899 -0.080612585 0.23119563 0.11062495 -0.07304331 -0.1626316 -0.042400356
-0.06751778 -0.014952824 -0.08718309 0.01884513 0.045164876 0.07701712 -0.15629135 -0.13861038
0.025239138 0.2285915 -0.11185194 0.16081476 0.14782092 0.09194958 -0.012371648 0.07844578
-0.072624944 -0.072940916 -0.049042158 0.14503597 0.11100061 0.031134378 -0.07321737 0.045422815
0.06750988 -0.050398607 -0.22463563 -0.056834932 -0.10141187 0.06233675 -0.041712012 -0.017262062
-0.010512022 0.11215934 -0.022629129 0.076756924 -0.15071496 0.08189503 0.0052574817 0.04851446
0.10651917 0.03478446 -0.06156846 -0.011215816 0.03713739 -0.123040006 -0.34470263 -0.18042699
0.009527292 0.18071537 -0.12086011 0.32779497 0.18885808 0.14575872 0.062493835 0.081717364
0.04000816 -0.071089074 -0.05561525 -0.080040745 0.0018891313 -0.022161292 -0.12345597 -0.06455371

l1/W f4 [20, 4]
00000000: bbf5 cabe 4259 cbbd 86bf 72bf 477d 03bf
00000010: 544c 2abe 2416 42bf 2e48 cfbe 1a5a 543e
00000020: f7f9 ec3d f4c8 f13e de77 213d 736b 073f
00000030: 0992 ab3c d80e d33d c16d 0e3f 558b 873f
00000040: 389d 05bf 2d0f 55be 6332 84bf 588d 9c3d
00000050: 1697 25be 1e77 02be d036 72bf bc7b 55be
00000060: d64f 48bf 2386 bfbe 7d55 22bf 17c0 f33e
00000070: b61b 923e 9afe d63e 328c 063f de34 723e
00000080: ed11 223f 6fc3 703e 3b6b f23e 9810 563e
00000090: 3b2d 5c3e 08d4 88be e007 5cbf 210a 33bf
000000a0: 1164 60bf a74e 6f3f 5a90 fd3e 3474 0b3f
000000b0: d40c 233f 738f ffbe e938 233d 9997 a9bf
000000c0: ad05 b03d 3a9d 233f 6637 02bf 1394 8cbd
000000d0: ad4e 6ebf 5f0f 6bbe 22b5 083e 6cbd 99be
000000e0: 805d 07bf 0f0c a93e 3183 493d c90e a9be
000000f0: da3c df3e 6900 5b3e d04b 323f 255c c9be
00000100: 9918 d3bd 3222 73bf 8118 54bc 1257 f4be
00000110: 321a c73d 228f e5be e8e9 863e 548c 2dbf
00000120: e387 8dbf 4bb4 89be 5363 82bf e435 293f
00000130: 253c c23d 3463 523f c8f9 203f 2f6a adbe
-0.39640602 -0.09929134 -0.9482349 -0.51363033 -0.1663068 -0.75815034 -0.40484756 0.20737496
0.115711145 0.47223628 0.039420955 0.5289833 0.020943658 0.103055656 0.5563622 1.0589396
-0.5219302 -0.2080657 -1.0327877 0.07644147 -0.16170916 -0.12740752 -0.9461489 -0.20847982
-0.7824682 -0.37407026 -0.63411695 0.4760749 0.28536767 0.4199112 0.5255767 0.2365298
0.633086 0.23512052 0.47347435 0.20904768 0.21501629 -0.26724267 -0.85949516 -0.6993733
-0.8765269 0.9347939 0.49524194 0.54474187 0.6369145 -0.4991413 0.039849196 -1.3249389
0.085948326 0.63911784 -0.5086578 -0.068641804 -0.930888 -0.22955082 0.13350347 -0.3002733
-0.52877045 0.33017012 0.04919738 -0.33019093 0.43601114 0.21386875 0.6964693 -0.39328113
-0.10307426 -0.9497405 -0.012945295 -0.4772268 0.09721793 -0.44835764 0.2635033 -0.6779225
-1.1057094 -0.26895365 -1.0186561 0.66097856 0.09484128 0.8218262 0.62881136 -0.33870074

l3/b f4 [4]
00000000: d09a dd3d 3f48 ce3d 04a3 053e ca7a ba3d
0.10820544 0.100723736 0.13050467 0.091054514
