net/binary.model (npz, 77371 bytes, 6 tensors)

l1/b f4 [50]
00000000: 6ccb a53d 931f 5b3e 6826 c1be 8515 39bf
00000010: 6add e8be 5b43 46be 632a 91be c1e1 b8be
00000020: 00d5 54bf 4302 8c3d 4744 fcbd befe 2a3d
00000030: 3f6f 1abf 667d 0a3d 5a96 cf3e 3a97 0ebd
00000040: c635 70ba 37d5 3cbf e6cf f8bc 1e40 7fbe
00000050: 1997 78be badc 513e 005f 1abf f1d7 90be
00000060: a1ad a1be e793 88bd 4598 3d3e e9bf f2be
00000070: 961b 88be d7a0 8ebe c815 5dbf 7131 c2be
00000080: 7642 c13e b28b 003f 2e01 55be 252f 0a3f
00000090: 4890 a4be 7691 e0bd 21e1 18be da6c dfbe
000000a0: 1e0c 0d3d 20c6 a03d bc81 b6be 88ca b1be
000000b0: 979d c2bd af07 7e3d ef2e a0be 9b5b 51be
000000c0: 9f2a 98be c369 2fbe
0.0809544 0.21398763 -0.37724614 -0.7229846 -0.45481426 -0.19361632 -0.2835265 -0.36109737
-0.8313751 0.06836369 -0.1231771 0.041746847 -0.60326 0.033810996 0.40544397 -0.03481219
-0.00091632863 -0.7376284 -0.030372571 -0.24926803 -0.24276389 0.20494357 -0.6030121 -0.2828975
-0.3157778 -0.06668835 0.18515117 -0.4741204 -0.26583546 -0.27857086 -0.8636136 -0.37928346
0.37746018 0.5021316 -0.20801231 0.53978187 -0.32141328 -0.109652445 -0.1492963 -0.43637735
0.034435384 0.07850289 -0.35645854 -0.34724832 -0.09502714 0.062019046 -0.31285807 -0.20445101
-0.29720017 -0.17130189

l1/W f4 [50, 1]
00000000: 9626 81bf 9428 b7bf 1683 863f 66c0 2abe
00000010: 2f70 ef3f 283c 8a3f f9a4 873e c4d2 d9be
00000020: 1aca e73f 7188 81bf 3a79 33bf 587d 6cbf
00000030: 5dcc 0abf 0189 8ebf f8be eabf 8c07 3ebf
00000040: a717 92bf 6b84 aebe 48f2 12bf c792 833f
00000050: da74 923f 49b0 aebf 8538 043d 53af 8a3f
00000060: 3fe0 a03f f0cf 33bf aa12 afbf 086c 043f
00000070: 3888 15bf bd3f ee3e be76 1440 64aa b73f
00000080: 7a9f e7bf b24d 04c0 1e19 8d3f 4524 06c0
00000090: a7f9 12bf 8c57 ffbe c54b 343f b678 9b3f
000000a0: abfb 67bf 653c 86bf 0924 1640 88c6 8c3f
000000b0: 5309 58bf be59 90bf 7784 a43f 338b 8c3f
000000c0: c321 b43f dd56 3dbf
-1.00899 -1.4309258 1.0508754 -0.16674957 1.8706111 1.0799608 0.26493052 -0.42543614
1.8108552 -1.0119764 -0.7010685 -0.9237876 -0.54218084 -1.113556 -1.8339529 -0.74230266
-1.1413468 -0.34085402 -0.5740094 1.0279168 1.144191 -1.3647548 0.032280464 1.0834755
1.2568434 -0.7023916 -1.3677571 0.5172734 -0.5841098 0.46533003 2.3197474 1.4348874
-1.8095543 -2.0672421 1.102329 -2.0959637 -0.5741219 -0.4987148 0.70428115 1.2146213
-0.9061839 -1.0487181 2.3459494 1.0998087 -0.8438923 -1.1277387 1.2852925 1.097998
1.4072803 -0.7396067

l2/upward/b f4 [200]
00000000: 20a5 cc3e dc46 333e 4c14 f9bd b8bc 92be
00000010: 65fe 1d3b c549 0f3f 73bf e73d 5320 353f
00000020: f4fc 91be cb36 38bd 5c87 a03d d3b4 92be
00000030: 0f25 fc3c 4427 ba3e 1cf7 60bc 2393 b13e
00000040: 8923 37bc 9e9e ad3e 83fd 21bf cb00 a03e
00000050: 5522 f63c 1849 2b3f 67b9 7abe 416a 273f
00000060: 8210 4d3d 0638 753e e67f 18be 7faa 553f
00000070: 70fb e33c 5ff0 28bd 9602 70bd 2f3a 78bd
00000080: 8c38 043c 1f84 253b bde8 1fbd 3953 3d3d
00000090: 6cac 84bc 73a8 0b3f 1dcf 59be 3664 103f
000000a0: 12e1 d8bb ea4e 4d3f 1d89 11be afc1 4a3f
000000b0: beb4 a8bd 03c0 00bd 1eba bb3d 25fe 86bc
000000c0: 0aa2 ffbb 4d0a 5fbd 5f7a afbd 9a90 ca3e
000000d0: c0b2 063b 02fa 533d ba85 b93b cdd4 843e
000000e0: 2f91 cf3b 11f5 113f cd25 7bbd dbb7 373f
000000f0: a27f ab3c a429 70bd 734f 463b 383f a2bd
00000100: d812 05bd 7ec0 243a f9a0 04be 00b5 653d
00000110: 0642 633e eb83 66be 92aa ae3d 078e 99bd
00000120: 0c09 f8bc c691 ebbd 26ff 443c a509 e4bc
00000130: 05ae c03c 0c4b 2ebd 4dc4 c63b 9414 7cbd
00000140: 4c6a 4bbb 8820 a83c 3fe3 61be 5335 fa3c
00000150: 388a 7ebd 9b00 c13d f340 5bbd 809d fc3d
00000160: b1fe 0f3e 8775 a1bd b7dd 09bf d58a 35be
00000170: 2ff4 b6bc dfe4 963e 6943 8bbe 420b cb3c
00000180: 22b2 af3c 08b8 2c3f 4aa5 903e 18a4 863e
00000190: c1e9 cc3c e842 f13c 72ca 1fbd 89e2 2f3d
000001a0: e3e4 68bb 6627 623f 4ae4 99bf f471 763e
000001b0: 653b 973c bdde 2a3f 0bae 35bf f79e 453f
000001c0: 36ed f6bc 33f7 283e ca11 06bd 0ea5 333e
000001d0: a5d3 adbb 5d7a d63e 7850 4dbe b48d a33e
000001e0: 039e 83bc de35 d63a 3568 06bd c141 713e
000001f0: 3428 293c 3e1c 773e d6f7 8fbb 01d5 d73c
00000200: 8346 febc bc2c 203f b4d1 60be 753e 143f
00000210: 6e19 8ebd 18e4 c03d b74f abbe 9fb0 ef3d
00000220: 9919 1f3c fe59 eb3e d6d0 93be 4082 dc3e
00000230: 0624 813c 79d3 423d a1c6 8ebd 325a a13d
00000240: eb6f 8c3c 5b2a 003e ded5 78be da5a 8bbd
00000250: 0bce 95be 5306 e6bb f600 013f 14e2 8bbd
00000260: f598 6d3c 06df 5bbe c5a6 9cbe f674 383e
00000270: ffac 0abe c25c a2bd 702b 98bd 9871 83be
00000280: 8eed aa3c 62e1 c33c 6eed 09bd 6dfd 573e
00000290: 3bd1 843e 1202 a13f 8286 903e 4695 11be
000002a0: c404 f03c b401 cebc c329 a3bd 2b82 3bbc
000002b0: 7748 9bbc fff6 68bd fd15 3bbd 87cc 663d
000002c0: c560 603c 734d 943e 5324 d63c f33b a03e
000002d0: c42d 023e 09c0 b6bd 677a 6bbe 2593 a6bd
000002e0: 693c cfbd 5a20 adbd d286 31bb f1e1 9fbd
000002f0: d05c 0bbd 1d93 dbbd 956b 72bd 4ac1 b13d
00000300: 93fc 193d 612d 863e c3c6 1dbf 4b1b 443f
00000310: b6b1 2a3b abbd 883e 460b 3cbe d5fa c13d
0.3996973 0.175075 -0.121620744 -0.28659606 0.002410793 0.5597194 0.11315813 0.7075245
-0.285133 -0.04497413 0.07838318 -0.28653583 0.03077939 0.36358082 -0.0137307905 0.3468257
-0.011177906 0.33910078 -0.63277453 0.31250605 0.030045668 0.6690841 -0.24484788 0.65396506
0.05006457 0.23947152 -0.1489254 0.8346328 0.027829856 -0.04124486 -0.058596216 -0.060602363
0.008070122 0.0025255752 -0.039040316 0.046221945 -0.016195498 0.5455391 -0.21270414 0.5640291
-0.0066186273 0.8019854 -0.14212461 0.7920179 -0.08237599 -0.031433117 0.091663584 -0.016478607
-0.007801299 -0.054453183 -0.08568262 0.39563447 0.002055332 0.051752098 0.0056616934 0.25943604
0.006334446 0.57014567 -0.061315347 0.71764916 0.020934884 -0.05863346 0.0030259758 -0.07922214
-0.032488674 0.0006284787 -0.12952031 0.05608082 0.22193155 -0.2251126 0.085286275 -0.07497793
-0.030277751 -0.115024135 0.012023723 -0.02783663 0.023520479 -0.04255204 0.0060658813 -0.061543062
-0.00310387 0.020523325 -0.22059344 0.030543005 -0.062143534 0.094239436 -0.053528737 0.12334728
0.14062001 -0.07883745 -0.53853935 -0.17728741 -0.022333233 0.2947149 -0.27199867 0.024785642
0.021447245 0.6746831 0.28251106 0.2629707 0.025013806 0.029450849 -0.039011426 0.04294065
-0.0035536818 0.8834137 -1.2022793 0.24066907 0.018460939 0.6674612 -0.70968693 0.77195686
-0.030142408 0.16500549 -0.03273181 0.17543432 -0.005304771 0.4189023 -0.20050228 0.31944048
-0.016066557 0.0016342958 -0.032814223 0.2356024 0.010324527 0.24131867 -0.004393558 0.026346685
-0.031039482 0.6256826 -0.21954995 0.579078 -0.06938444 0.094185054 -0.33459255 0.1170361
0.009710693 0.45967096 -0.28870267 0.43068123 0.015764248 0.047564957 -0.06971479 0.078785315
0.01714321 0.12516157 -0.24300334 -0.06804438 -0.2925876 -0.007019797 0.5039209 -0.0683023
0.0145018 -0.21471795 -0.30595985 0.18013367 -0.13542555 -0.079278484 -0.0743016 -0.25672603
0.020865228 0.023911182 -0.033673696 0.21092768 0.2594088 1.2578757 0.2822762 -0.142171
0.029299147 -0.025147296 -0.0796695 -0.011444609 -0.018955452 -0.05687618 -0.045675267 0.056347396
0.013694947 0.2896534 0.026140368 0.31295738 0.1271277 -0.089233465 -0.22995912 -0.08133534
-0.10118944 -0.08453436 -0.0027088416 -0.07806767 -0.03402406 -0.10721419 -0.05918463 0.08679445
0.03759439 0.26206496 -0.6163141 0.76604146 0.0026045865 0.26707205 -0.18363675 0.094716705

l3/W f4 [1, 50]
00000000: ee55 993f b215 6cbe ee3a 1fc0 3c55 cf3e
00000010: 9523 2e3f 8334 0fbe ad80 a43f 4789 0e3f
00000020: 012c 33bf 0d29 753d 421b 343e 3df5 2abc
00000030: 34f9 713f f104 c4be 1ed1 93be 0317 7f3f
00000040: be59 c1be 20cf 203f cbad 04bf 4aab e63e
00000050: 9ccb bebe 5f4c 18bd 5c44 dfbf fd1c 9cbf
00000060: 900d 24bf 96fb 223e 25fb 733f c16d 5e3f
00000070: 61bf e53d 9bbe 74be 0183 03bf 9720 973f
00000080: 4e57 5abe d846 363f d7ac 9d3e 7cf1 09bf
00000090: 76e8 fbbe ef4b b1be 01da 8a3f e401 893f
000000a0: 9f1c b9bd 8f0c 743f fa3b 86be b9a9 d03e
000000b0: db3c 88be b2d0 333f 3eb0 483e 3e32 00bf
000000c0: 97f7 51bf 15b8 273f
1.1979349 -0.23055151 -2.4879718 0.40494716 0.68023044 -0.13984875 1.2851769 0.5567822
-0.6998902 0.059853602 0.17588523 -0.010434446 0.9452088 -0.3828502 -0.2887048 0.9964449
-0.3776378 0.6281605 -0.5182769 0.45052558 -0.37264717 -0.03718221 -1.7442737 -1.2196347
-0.64083195 0.15916285 0.9530509 0.8688622 0.11218143 -0.23900835 -0.5137177 1.1806821
-0.21322367 0.7120185 0.3079593 -0.538841 -0.4920079 -0.34628245 1.084778 1.0703702
-0.09038662 0.9533166 -0.26217633 0.40754488 -0.2660893 0.7024032 0.19598481 -0.50076663
-0.8201842 0.6551526

l2/lateral/W f4 [200, 50]
00000000: c326 a3bf 4041 21c0 71f1 ebbf b340 e13f
00000010: d4f3 33bf 2708 603f 4b89 9dbd 043e 0a3e
00000020: 48e2 47bf 2336 993f b993 9c3e bf39 30c0
00000030: 0440 43be d1b6 b0bf f95e 3bbf b5f3 8b3f
00000040: 428c 523d e48f 89be c1fc d93f 8bf7 713f
00000050: d41f 8239 5913 e33d 059e eebe 13d4 4d3b
00000060: 11f3 a7bf bb6c 2fc0 323a f1bf b7dc 1a3f
00000070: 3896 3f3f 88df 03c0 8843 b840 8739 23be
00000080: c330 3cc0 0ce0 403f 80b3 543f 2995 1dbf
00000090: b16a 8f3f ac1e 84bd 4e5f 0540 bf39 63bf
000000a0: a217 4bbf de22 c73d 29de 00c0 cbb3 b83e
000000b0: 54b2 3d3f c1b8 023f a1f5 f13e 94ff dcbf
000000c0: 7cb8 94bf ed75 9e3f 464b b740 ef58 7c3f
000000d0: 0135 61bf 0c49 65bf 7fa9 243f 322a 03c0
000000e0: 23dc 3d40 2287 843e 84a6 b73f 1e36 3b3f
000000f0: 3a16 833f e74d 293c 3d1b 3b40 fe1d 813f
00000100: 2c78 d2bf 2189 5fc0 7693 3ec0 37a7 623e
00000110: a4ad 983d 6c19 abbf d89c 2d3e 5e6b 15bf
00000120: 6a8a 45c0 558d 4dc0 a3b3 2c3f 2332 86bf
00000130: aeea 0f40 fc89 aabf aa92 8a3f 7657 bc3d
00000140: a0b4 32c0 1a91 ccbe 8d60 e6be 81b3 3cc0
00000150: 1919 36be ab84 dd3e 5afb 18be b63c a13e
00000160: 8b81 24c0 8f36 983d 9543 843f 9a3d 17bf
00000170: 95d7 1140 72fd a9bf 77a1 d8be f438 44bf
00000180: 0b76 61bf 8777 8740 d41c 62bf 62eb 443e
00000190: f1ba b7bf b9d8 0c3d a95a 0a3f 2a9b 03c0
000001a0: 38a5 d93f ad40 483e b838 40bf 2380 d43e
000001b0: a399 87bf 671f ef3e 7db7 343d e861 af3e
000001c0: 9678 bb3c ece1 d3be 084b cbbf 9231 e03e
000001d0: 7c55 3abf fe2b ba3e 0c80 9340 d172 a23e
000001e0: c859 443f 2ac0 4e40 22b3 a6bf 1bf8 573f
000001f0: 1727 083f 988e 27be 1b3d 92be eeb4 0cbf
00000200: b7d0 04c0 9f1e b23f e86e a9be a57a d83d
00000210: c929 8c40 3f6e 423f 6c40 c43d 9231 943e
00000220: 6a19 fd3e 3940 cabd 603c 06bf 1fbd dabf
00000230: 80d1 65bd ccb0 4140 4f76 cfbe 0359 25bf
00000240: afa9 90be 2378 e5bd 9a6d 3fbf ab3d 4ebf
00000250: 2f71 78bf dded abbe a528 b6bd 1515 643f
00000260: 3cda b63e bbd0 c6bf 55b9 233f 1bdd 0e3f
00000270: 6719 01bf 7c1d 4a3e 03d1 84bf ca47 a83f
00000280: b78f ca3f 47f5 eabe 0e12 bc3f 7859 ce3f
00000290: 0ce7 74bf 54f1 d7bd 49f2 f53d f137 be3f
000002a0: 041e 873f f71a c8be 6818 dabe 0baa 7fbf
000002b0: 6b56 21bd df6d 583f a903 0740 f60b 59bf
000002c0: 0361 4d40 ab91 4abf 15e9 35be 6bba b03f
000002d0: 88b2 333f 66d6 2c3f 7be0 6cbe e7ae adbe
000002e0: cdd2 babf 87a6 163f 2a34 78bf 09de a6be
000002f0: f9f6 0e40 1983 a8be 6ea5 993e 50d0 e8bf
00000300: c8d7 e7bd a60e 253f 4d2d 2bbf a060 de3e
00000310: 4e79 803f 7106 1840 928e 5d3e 9eaf a0bf
00000320: 87bc 26be dd46 923e 13b8 07bd 13f1 e53e
00000330: 0b19 99be fa6b e63e 3401 9b3e 08ca 023e
00000340: 308d 2d3e 2447 f7be 6c8b 89bf 991a 4cbe
00000350: 6d04 d6be e2d6 bdbe 42c4 593e 5458 973d
00000360: dfe2 81be 1fc9 cfbc dc3a 49be ef35 a03d
00000370: 494e 85bd eb31 3e3d 1a45 29be 7828 443e
00000380: 9ef5 7e3e 3560 563e 71a5 b2bc 0005 0c3e
00000390: 5fd3 8fbe bd86 8bbe d857 01bf 51e5 033f
000003a0: 7725 17be 9226 573e f217 1b3e 5999 3f3d
000003b0: 91aa c4bd d67d 3f3c 3fbd b13c 300d cc3d
000003c0: b529 df3d a924 dd3d ac24 a2be d4a5 abbd
000003d0: 8f8f 153e 37c2 96bc df72 1a3e 475e ae3d
000003e0: fe22 043e b29d 383e 7968 d23d bdf0 37bd
000003f0: d05c b1be 555c 0dbf 8661 f63e 4b22 823e
-1.2746204 -2.5196075 -1.8433057 1.759787 -0.7029393 0.8751244 -0.07692202 0.1350022
-0.7807965 1.1969646 0.30581453 -2.7535245 -0.19067389 -1.3805791 -0.7319179 1.0933748
0.05140329 -0.26867592 1.7030259 0.94518346 0.00024819246 0.11087675 -0.46604934 0.0031406924
-1.3121053 -2.7410114 -1.8845885 0.60493034 0.7483859 -2.0605183 5.7582436 -0.15939914
-2.9404762 0.7534187 0.83086395 -0.61555725 1.1204435 -0.06451163 2.083942 -0.8875999
-0.79332936 0.09723447 -2.0135596 0.3607467 0.7410023 0.5106316 0.47257712 -1.7265496
-1.16188 1.2379738 5.7279387 0.985732 -0.879715 -0.89564586 0.6432113 -2.0494504
2.966561 0.25884348 1.4347692 0.7312945 1.0241158 0.010333515 2.9235375 1.0087278
-1.6442924 -3.4927447 -2.9777503 0.221341 0.07454994 -1.3367133 0.16954362 -0.58366954
-3.0865731 -3.2117512 0.67461604 -1.048405 2.2486987 -1.332336 1.0826008 0.09196369
-2.7922745 -0.39954454 -0.44995537 -2.948456 -0.17783011 0.4326528 -0.14939633 0.3149163
-2.5704067 0.07432281 1.0333124 -0.5907837 2.278783 -1.328047 -0.42310688 -0.76649404
-0.88070744 4.2333407 -0.8832524 0.19230416 -1.4353925 0.03438637 0.54044586 -2.0563455
1.7003546 0.19555922 -0.75086546 0.4150401 -1.0593761 0.46703646 0.0441203 0.34254384
0.022884648 -0.41383302 -1.5882273 0.4378782 -0.7278669 0.36361688 4.6093807 0.31728223
0.76699495 3.2304788 -1.3023417 0.84362954 0.53184646 -0.16362989 -0.28562245 -0.54963577
-2.075239 1.3915595 -0.33092427 0.105702676 4.3801007 0.7594947 0.095826 0.2894407
0.49433452 -0.09875531 -0.52435875 -1.7088965 -0.056107998 3.0264158 -0.4051995 -0.64588946
-0.28254458 -0.11204555 -0.74776614 -0.8056285 -0.97047704 -0.33579913 -0.08894471 0.8909467
0.35713375 -1.553245 0.6395467 0.5580613 -0.50429386 0.1973781 -1.0376285 1.3146908
1.5825108 -0.45890257 1.469301 1.6121054 -0.9566505 -0.105440766 0.12009103 1.4860822
1.0556035 -0.39083073 -0.42596745 -0.9986884 -0.039389055 0.8454265 2.1095984 -0.84783876
3.2090461 -0.7912852 -0.17764695 1.380689 0.7019429 0.67514646 -0.23132508 -0.33922502
-1.4595581 0.5884785 -0.96954596 -0.32591274 2.233824 -0.3291252 0.30009025 -1.8188572
-0.11320454 0.64475477 -0.66866 0.43433094 1.0037019 2.3753932 0.21636418 -1.2553594
-0.16282855 0.2856969 -0.03313453 0.44910488 -0.2990192 0.45004255 0.30274355 0.12772381
0.1694839 -0.48296463 -1.0745673 -0.19932021 -0.41800252 -0.37078005 0.21266273 0.07389894
-0.253684 -0.025364457 -0.1965136 0.07822787 -0.06509072 0.046434324 -0.16530266 0.19156063
0.24898383 0.20935138 -0.021807404 0.13673782 -0.2809095 -0.27251235 -0.50524664 0.51521784
-0.14760385 0.21010807 0.15145853 0.046777103 -0.096028455 0.0116877165 0.021696685 0.09963453
0.10896627 0.10798008 -0.31668603 -0.083812386 0.14605545 -0.018403156 0.15082882 0.08514076
0.12903973 0.18028906 0.10273833 -0.04490732 -0.34641123 -0.5521901 0.4812128 0.25416788

l2/upward/W f4 [200, 50]
00000000: 2d79 ca3e 9dd5 d63d 8ba4 cb3e 611b 9f3e
00000010: c489 c83e 8fc5 063f 9b70 043f 65e3 3a3e
00000020: e58e fb3e bccd 033e 3330 dd3e 7524 873e
00000030: 9e9f 503d b5fc a03e 9f7a 203e f9fc 6c3e
00000040: 7791 bf3d 4c57 c13e c58c e43e d9f2 263f
00000050: 224e 0e3f dee8 023d 2956 a53e 58f5 ea3e
00000060: 2fa4 0f3f 9655 4a3e b80c 8f3e 33a6 1e3e
00000070: fb17 8a3e 18c1 263f d2d9 ee3e 1585 f83e
00000080: 18f8 39bd 0cf6 e43d 3766 f03d 0d6b bd3d
00000090: ce39 de3e 4011 743e 27e4 2e3f f429 f83e
000000a0: 10a3 b33e 7e0e 4c3e 4209 ad3e fb41 2a3f
000000b0: 1c98 153f 08ff bb3e eeaa 513f 4591 2c3f
000000c0: 19d4 073f 4fe8 ed3e ea42 253d 7b05 4e3e
000000d0: 1f55 9c3e 3ebd d93e f190 923e 034c 80bc
000000e0: 5c22 6c3e 0f57 6f3e 8e01 0f3e 7c81 adbb
000000f0: 2b2d 513c 98f4 7cbd 2831 7d3c 03e0 713c
00000100: 9a39 aabd e0f8 113e a99e 943e 78df 923c
00000110: bad2 8d3e d9db 983d b9b9 713e 7f5c 933d
00000120: 4fc7 ed3e 3897 8e3e fe7a 203c 0624 8b3e
00000130: f64a 083e 2bb3 3e3e 2789 813e 6fb8 943e
00000140: b399 453e f486 813b 1f55 a63d 7e11 36be
00000150: 3fdf ad3d 3eef 313e 99a3 2c3e cb75 813e
00000160: 13a8 cc3e 3a4c b33e d175 193e a7f7 d63e
00000170: de8e 4f3d 6ed4 133e 6fc1 933e ae80 643e
00000180: 0ad3 963e 158f 6f3e 94b2 ac3e 0042 c13d
00000190: f8ce 06be 7120 29be 4efe 683d 5804 0dbd
000001a0: 88fb 16bd 3955 0c3d 99b6 08be 4e36 973c
000001b0: 19a1 3ebd 92d9 adbe 36f5 13be 79fc bbbe
000001c0: 253c a1bd bf83 2bbe 21fb a6be b73d 3cbe
000001d0: 2e8c cbbd 1f63 76be a914 e63d 95d8 2cbe
000001e0: 4e36 54be 7c2b 29be 1cb1 99bd c86d 87bd
000001f0: dbe9 d13d 2818 dc3c 8369 18bf e167 f2bc
00000200: 1272 9fbe ffa1 2fbe 87e9 f83b d6f5 fbbd
00000210: cdfb 60be b37a 13bf 52bb 683d b4ab 17bf
00000220: 61b7 94be 0e76 d0bd d3ef eebc 682e 59be
00000230: 31de 93be 616a d3be a161 21be 3270 873e
00000240: 3308 7a3c acaa 80be 2110 6fbc 8141 833c
00000250: 922e 273d 8f84 56bd f081 b6be 502b 81be
00000260: f884 80be 52f6 00bf bd4a b3be a57b c6be
00000270: d312 3abe cac4 94be 3677 febe 54d8 87be
00000280: 818f 66be 61e8 d9be 2bfa dcbe 5ed7 6abe
00000290: ce4f 0dbe ffaa 7fbe 4e3c 95be cb6e a6be
000002a0: 2ef7 a4be 00b9 76be d4ea 51be be8d bcbe
000002b0: 018f a2be bf83 cebe 4c12 dfbe 1d10 81be
000002c0: 0fa9 b83c 0b26 d9be 558c 22be e8ed d8be
000002d0: 73cf dabe 45a0 8abe 0ec4 28be 7191 25be
000002e0: 9b6c 96be d5a3 8bbd 9a96 f2bd d4a5 41bd
000002f0: 00ee 1ebe 9fe7 34bf 7593 17bd 868b 07be
00000300: 2072 e6be 458a a8be d233 cabe e712 92be
00000310: c57c cfbe ba95 55be 68b8 d4be 3173 87be
00000320: 49f3 973e 145e c33d 1881 353e cf1f 143e
00000330: db14 dcbd ea32 3bbe 10cc cfbd 63e2 c53d
00000340: 67bc 743d 1cc8 923e 1b06 34bc c616 603e
00000350: 3a72 a9bd 787f 3b3e e79e 453f 2fba 2f3d
00000360: 8871 3f3e 604a 6abe eb33 e33d d0d9 e7bd
00000370: 8db5 aebe 46ba b93e 19b1 853c 8f59 c7bd
00000380: f59f d6bd c076 9f3d 580e 983e 378c de3d
00000390: 1452 4ebd 71c0 383d b1d9 133e 94ed cebc
000003a0: 865c e63e ad6e 013f dff9 95be 4b3e 3d3f
000003b0: e473 b93b cb62 a43e 4ead 03bd 2822 87bd
000003c0: 3d1a 8f3e a881 7b3e 6d0f c03c 91ac 12be
000003d0: cc27 143e b5d6 9a3e 3c29 4cbe bb0b f0be
000003e0: 949c 8ebe 699a b53d d1ef 0f3e 6bca 203f
000003f0: 1ea8 d73e a267 233f d360 253f 8683 e03e
0.39545575 0.10489962 0.39773974 0.31075576 0.39167607 0.526452 0.5173432 0.18250807
0.49132457 0.1287145 0.43200836 0.26395002 0.050933473 0.314428 0.15671776 0.23143376
0.09353917 0.37761915 0.4463865 0.65214306 0.5558797 0.03196036 0.32292297 0.45890307
0.561099 0.19759211 0.2793939 0.15493087 0.2697142 0.6513839 0.4665056 0.48539034
-0.045402616 0.11179742 0.11738246 0.09248934 0.43403476 0.23834705 0.6831688 0.48469508
0.35085344 0.19927403 0.33796126 0.6650693 0.58435225 0.3671801 0.81901443 0.67409164
0.5305801 0.464663 0.040347017 0.20119278 0.30533692 0.42527193 0.28626207 -0.015661245
0.23059982 0.23373054 0.13965437 -0.0052949768 0.012767117 -0.0617567 0.015453614 0.014762881
-0.08311768 0.14255095 0.29027298 0.017928824 0.27699834 0.074638076 0.23606004 0.071953766
0.46441123 0.27849746 0.009794949 0.2717592 0.13309845 0.18623035 0.2529995 0.29046962
0.19296913 0.0039528552 0.08121704 -0.1778011 0.084898464 0.1737642 0.16859283 0.2528518
0.3997198 0.35019094 0.1498635 0.4198582 0.05067336 0.14436504 0.28858516 0.22314712
0.29457885 0.23394425 0.33729994 0.094364166 -0.1316489 -0.16516282 0.05688315 -0.03442797
-0.036860973 0.034260962 -0.13350905 0.018458512 -0.046540353 -0.33955055 -0.1444901 -0.3671606
-0.078728 -0.16749476 -0.3261347 -0.18382917 -0.099388465 -0.24061249 0.11234409 -0.16879494
-0.2072384 -0.16520494 -0.07504484 -0.06612736 0.102496825 0.026866987 -0.59536 -0.029590549
-0.31141716 -0.1715164 0.007596198 -0.12302749 -0.21971054 -0.576091 0.056819268 -0.59246373
-0.29046157 -0.10178767 -0.029167091 -0.21209109 -0.28880456 -0.41292098 -0.15759899 0.26452786
0.015260744 -0.25130212 -0.014591248 0.016022446 0.040815897 -0.05237251 -0.3564601 -0.25228357
-0.25101447 -0.50375855 -0.35017958 -0.38766208 -0.18171243 -0.29056388 -0.49700326 -0.26532233
-0.2251568 -0.42560104 -0.43159613 -0.22933719 -0.13799974 -0.24967574 -0.2914757 -0.32506403
-0.32219833 -0.2409401 -0.20499736 -0.3682689 -0.31749728 -0.4033489 -0.43568647 -0.25207606
0.02254155 -0.42411837 -0.15873845 -0.42369008 -0.42736396 -0.270754 -0.16481039 -0.16168763
-0.29379734 -0.06818358 -0.11845131 -0.047277287 -0.15520477 -0.70665926 -0.03700586 -0.13236818
-0.45008945 -0.3291799 -0.3949266 -0.28530046 -0.4052488 -0.20857897 -0.4154694 -0.26455072
0.296778 0.09539428 0.17725027 0.14465259 -0.10746165 -0.18281141 -0.10146344 0.096623205
0.059749987 0.28668296 -0.010987784 0.21883687 -0.0827374 0.18310344 0.7719559 0.042902168
0.18695652 -0.22879934 0.11093887 -0.11320841 -0.34122887 0.36274928 0.016319798 -0.09733879
-0.10479728 0.07786322 0.29698443 0.108665876 -0.050371245 0.0451054 0.14438511 -0.02525977
0.44992465 0.505595 -0.292922 0.73923177 0.005659567 0.32106623 -0.032147698 -0.06598312
0.27949706 0.24561179 0.023444856 -0.14323641 0.14468306 0.30241933 -0.19937605 -0.4688395
-0.27853835 0.08867342 0.14056326 0.62808865 0.4212045 0.63830006 0.6460087 0.43850344
